…
I20241027 08:41:47.863170  9701 net.cpp:296] The NetState phase (0) differed from the phase (1) specified by a rule in layer mnist
I20241027 08:41:47.863207  9701 net.cpp:296] The NetState phase (0) differed from the phase (1) specified by a rule in layer accuracy
I20241027 08:41:47.863220  9701 net.cpp:53] Initializing net from parameters: 
name: "LeNet"
state {
  phase: TRAIN
  level: 0
  stage: ""
}
layer {
  name: "mnist"
  type: "Data"
  top: "data"
  top: "label"
  include {
    phase: TRAIN
  }
  transform_param {
    scale: 0.00390625
  }
  data_param {
    source: "examples/mnist/mnist_train_lmdb"
    batch_size: 64
    backend: LMDB
  }
}
layer {
  name: "conv1"
  type: "Convolution"
  bottom: "data"
  top: "conv1"
  param {
    lr_mult: 1
  }
  param {
    lr_mult: 2
  }
  convolution_param {
    num_output: 20
    kernel_size: 5
    stride: 1
    weight_filler {
      type: "xavier"
    }
    bias_filler {
      type: "constant"
    }
  }
}
layer {
  name: "pool1"
  type: "Pooling"
  bottom: "conv1"
  top: "pool1"
  pooling_param {
    pool: MAX
    kernel_size: 2
    stride: 2
  }
}
layer {
  name: "conv2"
  type: "Convolution"
  bottom: "pool1"
  top: "conv2"
  param {
    lr_mult: 1
  }
  param {
    lr_mult: 2
  }
  convolution_param {
    num_output: 50
    kernel_size: 5
    stride: 1
    weight_filler {
      type: "xavier"
    }
    bias_filler {
      type: "constant"
    }
  }
}
layer {
  name: "pool2"
  type: "Pooling"
  bottom: "conv2"
  top: "pool2"
  pooling_param {
    pool: MAX
    kernel_size: 2
    stride: 2
  }
}
layer {
  name: "ip1"
  type: "InnerProduct"
  bottom: "pool2"
  top: "ip1"
  param {
    lr_mult: 1
  }
  param {
    lr_mult: 2
  }
  inner_product_param {
    num_output: 500
    weight_filler {
      type: "xavier"
    }
    bias_filler {
      type: "constant"
    }
  }
}
layer {
  name: "relu1"
  type: "ReLU"
  bottom: "ip1"
  top: "ip1"
}
layer {
  name: "ip2"
  type: "InnerProduct"
  bottom: "ip1"
  top: "ip2"
  param {
    lr_mult: 1
  }
  param {
    lr_mult: 2
  }
  inner_product_param {
    num_output: 10
    weight_filler {
      type: "xavier"
    }
    bias_filler {
      type: "constant"
    }
  }
}
layer {
  name: "loss"
  type: "SoftmaxWithLoss"
  bottom: "ip2"
  bottom: "label"
  top: "loss"
}
I20241027 08:41:47.863376  9701 layer_factory.hpp:77] Creating layer mnist
I20241027 08:41:47.917939  9701 db_lmdb.cpp:35] Opened lmdb examples/mnist/mnist_train_lmdb
I20241027 08:41:47.919821  9701 net.cpp:86] Creating Layer mnist
I20241027 08:41:47.919896  9701 net.cpp:382] mnist -> data
I20241027 08:41:47.919986  9701 net.cpp:382] mnist -> label
I20241027 08:41:47.923069  9701 data_layer.cpp:45] output data size: 64,1,28,28
I20241027 08:41:47.924170  9701 net.cpp:124] Setting up mnist
I20241027 08:41:47.924225  9701 net.cpp:131] Top shape: 64 1 28 28 (50176)
I20241027 08:41:47.924265  9701 net.cpp:131] Top shape: 64 (64)
I20241027 08:41:47.924295  9701 net.cpp:139] Memory required for data: 200960
I20241027 08:41:47.924327  9701 layer_factory.hpp:77] Creating layer conv1
I20241027 08:41:47.924401  9701 net.cpp:86] Creating Layer conv1
I20241027 08:41:47.924436  9701 net.cpp:408] conv1 <- data
I20241027 08:41:47.924485  9701 net.cpp:382] conv1 -> conv1
I20241027 08:41:47.925417  9701 net.cpp:124] Setting up conv1
I20241027 08:41:47.925469  9701 net.cpp:131] Top shape: 64 20 24 24 (737280)
I20241027 08:41:47.925501  9701 net.cpp:139] Memory required for data: 3150080
I20241027 08:41:47.925570  9701 layer_factory.hpp:77] Creating layer pool1
I20241027 08:41:47.925673  9701 net.cpp:86] Creating Layer pool1
I20241027 08:41:47.925701  9701 net.cpp:408] pool1 <- conv1
I20241027 08:41:47.925734  9701 net.cpp:382] pool1 -> pool1
I20241027 08:41:47.925833  9701 net.cpp:124] Setting up pool1
I20241027 08:41:47.925863  9701 net.cpp:131] Top shape: 64 20 12 12 (184320)
I20241027 08:41:47.925892  9701 net.cpp:139] Memory required for data: 3887360
I20241027 08:41:47.925917  9701 layer_factory.hpp:77] Creating layer conv2
I20241027 08:41:47.925963  9701 net.cpp:86] Creating Layer conv2
I20241027 08:41:47.925988  9701 net.cpp:408] conv2 <- pool1
I20241027 08:41:47.926038  9701 net.cpp:382] conv2 -> conv2
I20241027 08:41:47.934257  9701 net.cpp:124] Setting up conv2
I20241027 08:41:47.934302  9701 net.cpp:131] Top shape: 64 50 8 8 (204800)
I20241027 08:41:47.934322  9701 net.cpp:139] Memory required for data: 4706560
I20241027 08:41:47.934341  9701 layer_factory.hpp:77] Creating layer pool2
I20241027 08:41:47.934367  9701 net.cpp:86] Creating Layer pool2
I20241027 08:41:47.934381  9701 net.cpp:408] pool2 <- conv2
I20241027 08:41:47.934396  9701 net.cpp:382] pool2 -> pool2
I20241027 08:41:47.934444  9701 net.cpp:124] Setting up pool2
I20241027 08:41:47.934458  9701 net.cpp:131] Top shape: 64 50 4 4 (51200)
I20241027 08:41:47.934470  9701 net.cpp:139] Memory required for data: 4911360
I20241027 08:41:47.934482  9701 layer_factory.hpp:77] Creating layer ip1
I20241027 08:41:47.934520  9701 net.cpp:86] Creating Layer ip1
I20241027 08:41:47.934531  9701 net.cpp:408] ip1 <- pool2
I20241027 08:41:47.934546  9701 net.cpp:382] ip1 -> ip1
I20241027 08:41:47.941663  9701 net.cpp:124] Setting up ip1
I20241027 08:41:47.941702  9701 net.cpp:131] Top shape: 64 500 (32000)
I20241027 08:41:47.941716  9701 net.cpp:139] Memory required for data: 5039360
I20241027 08:41:47.941736  9701 layer_factory.hpp:77] Creating layer relu1
I20241027 08:41:47.941756  9701 net.cpp:86] Creating Layer relu1
I20241027 08:41:47.941769  9701 net.cpp:408] relu1 <- ip1
I20241027 08:41:47.941783  9701 net.cpp:369] relu1 -> ip1 (in-place)
I20241027 08:41:47.941805  9701 net.cpp:124] Setting up relu1
I20241027 08:41:47.941817  9701 net.cpp:131] Top shape: 64 500 (32000)
I20241027 08:41:47.941829  9701 net.cpp:139] Memory required for data: 5167360
I20241027 08:41:47.941840  9701 layer_factory.hpp:77] Creating layer ip2
I20241027 08:41:47.941860  9701 net.cpp:86] Creating Layer ip2
I20241027 08:41:47.941872  9701 net.cpp:408] ip2 <- ip1
I20241027 08:41:47.941887  9701 net.cpp:382] ip2 -> ip2
I20241027 08:41:47.942087  9701 net.cpp:124] Setting up ip2
I20241027 08:41:47.942101  9701 net.cpp:131] Top shape: 64 10 (640)
I20241027 08:41:47.942113  9701 net.cpp:139] Memory required for data: 5169920
I20241027 08:41:47.942126  9701 layer_factory.hpp:77] Creating layer loss
I20241027 08:41:47.942145  9701 net.cpp:86] Creating Layer loss
I20241027 08:41:47.942157  9701 net.cpp:408] loss <- ip2
I20241027 08:41:47.942166  9701 net.cpp:408] loss <- label
I20241027 08:41:47.942176  9701 net.cpp:382] loss -> loss
…
I20241027 08:41:47.943724  9701 solver.cpp:190] Creating test net (#0) specified by net file: examples/mnist/lenet_train_test.prototxt
I20241027 08:41:47.943776  9701 net.cpp:296] The NetState phase (1) differed from the phase (0) specified by a rule in layer mnist
I20241027 08:41:47.943794  9701 net.cpp:53] Initializing net from parameters: 
name: "LeNet"
state {
  phase: TEST
}
layer {
  name: "mnist"
  type: "Data"
  top: "data"
  top: "label"
  include {
    phase: TEST
  }
  transform_param {
    scale: 0.00390625
  }
  data_param {
    source: "examples/mnist/mnist_test_lmdb"
    batch_size: 100
    backend: LMDB
  }
}
layer {
  name: "conv1"
  type: "Convolution"
  bottom: "data"
  top: "conv1"
  param {
    lr_mult: 1
  }
  param {
    lr_mult: 2
  }
  convolution_param {
    num_output: 20
    kernel_size: 5
    stride: 1
    weight_filler {
      type: "xavier"
    }
    bias_filler {
      type: "constant"
    }
  }
}
layer {
  name: "pool1"
  type: "Pooling"
  bottom: "conv1"
  top: "pool1"
  pooling_param {
    pool: MAX
    kernel_size: 2
    stride: 2
  }
}
layer {
  name: "conv2"
  type: "Convolution"
  bottom: "pool1"
  top: "conv2"
  param {
    lr_mult: 1
  }
  param {
    lr_mult: 2
  }
  convolution_param {
    num_output: 50
    kernel_size: 5
    stride: 1
    weight_filler {
      type: "xavier"
    }
    bias_filler {
      type: "constant"
    }
  }
}
layer {
  name: "pool2"
  type: "Pooling"
  bottom: "conv2"
  top: "pool2"
  pooling_param {
    pool: MAX
    kernel_size: 2
    stride: 2
  }
}
layer {
  name: "ip1"
  type: "InnerProduct"
  bottom: "pool2"
  top: "ip1"
  param {
    lr_mult: 1
  }
  param {
    lr_mult: 2
  }
  inner_product_param {
    num_output: 500
    weight_filler {
      type: "xavier"
    }
    bias_filler {
      type: "constant"
    }
  }
}
layer {
  name: "relu1"
  type: "ReLU"
  bottom: "ip1"
  top: "ip1"
}
layer {
  name: "ip2"
  type: "InnerProduct"
  bottom: "ip1"
  top: "ip2"
  param {
    lr_mult: 1
  }
  param {
    lr_mult: 2
  }
  inner_product_param {
    num_output: 10
    weight_filler {
      type: "xavier"
    }
    bias_filler {
      type: "constant"
    }
  }
}
layer {
  name: "accuracy"
  type: "Accuracy"
  bottom: "ip2"
  bottom: "label"
  top: "accuracy"
  include {
    phase: TEST
  }
}
layer {
  name: "loss"
  type: "SoftmaxWithLoss"
  bottom: "ip2"
  bottom: "label"
  top: "loss"
}
I20241027 08:41:47.943982  9701 layer_factory.hpp:77] Creating layer mnist
I20241027 08:41:47.963161  9701 db_lmdb.cpp:35] Opened lmdb examples/mnist/mnist_test_lmdb
I20241027 08:41:47.964745  9701 net.cpp:86] Creating Layer mnist
I20241027 08:41:47.964800  9701 net.cpp:382] mnist -> data
I20241027 08:41:47.964834  9701 net.cpp:382] mnist -> label
I20241027 08:41:47.965037  9701 data_layer.cpp:45] output data size: 100,1,28,28
I20241027 08:41:47.966434  9701 net.cpp:124] Setting up mnist
I20241027 08:41:47.966495  9701 net.cpp:131] Top shape: 100 1 28 28 (78400)
I20241027 08:41:47.966534  9701 net.cpp:131] Top shape: 100 (100)
I20241027 08:41:47.966562  9701 net.cpp:139] Memory required for data: 314000
I20241027 08:41:47.966590  9701 layer_factory.hpp:77] Creating layer label_mnist_1_split
I20241027 08:41:47.966629  9701 net.cpp:86] Creating Layer label_mnist_1_split
I20241027 08:41:47.966657  9701 net.cpp:408] label_mnist_1_split <- label
I20241027 08:41:47.966694  9701 net.cpp:382] label_mnist_1_split -> label_mnist_1_split_0
I20241027 08:41:47.966737  9701 net.cpp:382] label_mnist_1_split -> label_mnist_1_split_1
I20241027 08:41:47.967268  9701 net.cpp:124] Setting up label_mnist_1_split
I20241027 08:41:47.967319  9701 net.cpp:131] Top shape: 100 (100)
I20241027 08:41:47.967350  9701 net.cpp:131] Top shape: 100 (100)
I20241027 08:41:47.967379  9701 net.cpp:139] Memory required for data: 314800
I20241027 08:41:47.967428  9701 layer_factory.hpp:77] Creating layer conv1
I20241027 08:41:47.967517  9701 net.cpp:86] Creating Layer conv1
I20241027 08:41:47.967545  9701 net.cpp:408] conv1 <- data
I20241027 08:41:47.967579  9701 net.cpp:382] conv1 -> conv1
I20241027 08:41:47.968153  9701 net.cpp:124] Setting up conv1
I20241027 08:41:47.968184  9701 net.cpp:131] Top shape: 100 20 24 24 (1152000)
I20241027 08:41:47.968225  9701 net.cpp:139] Memory required for data: 4922800
I20241027 08:41:47.968264  9701 layer_factory.hpp:77] Creating layer pool1
I20241027 08:41:47.968295  9701 net.cpp:86] Creating Layer pool1
I20241027 08:41:47.968320  9701 net.cpp:408] pool1 <- conv1
I20241027 08:41:47.968350  9701 net.cpp:382] pool1 -> pool1
I20241027 08:41:47.968444  9701 net.cpp:124] Setting up pool1
I20241027 08:41:47.968472  9701 net.cpp:131] Top shape: 100 20 12 12 (288000)
I20241027 08:41:47.968501  9701 net.cpp:139] Memory required for data: 6074800
I20241027 08:41:47.968526  9701 layer_factory.hpp:77] Creating layer conv2
I20241027 08:41:47.968562  9701 net.cpp:86] Creating Layer conv2
I20241027 08:41:47.968587  9701 net.cpp:408] conv2 <- pool1
I20241027 08:41:47.968626  9701 net.cpp:382] conv2 -> conv2
I20241027 08:41:47.969920  9701 net.cpp:124] Setting up conv2
I20241027 08:41:47.969957  9701 net.cpp:131] Top shape: 100 50 8 8 (320000)
I20241027 08:41:47.969988  9701 net.cpp:139] Memory required for data: 7354800
I20241027 08:41:47.970043  9701 layer_factory.hpp:77] Creating layer pool2
I20241027 08:41:47.970077  9701 net.cpp:86] Creating Layer pool2
I20241027 08:41:47.970103  9701 net.cpp:408] pool2 <- conv2
I20241027 08:41:47.970146  9701 net.cpp:382] pool2 -> pool2
I20241027 08:41:47.970304  9701 net.cpp:124] Setting up pool2
I20241027 08:41:47.970340  9701 net.cpp:131] Top shape: 100 50 4 4 (80000)
I20241027 08:41:47.970377  9701 net.cpp:139] Memory required for data: 7674800
I20241027 08:41:47.970407  9701 layer_factory.hpp:77] Creating layer ip1
I20241027 08:41:47.970458  9701 net.cpp:86] Creating Layer ip1
I20241027 08:41:47.970486  9701 net.cpp:408] ip1 <- pool2
I20241027 08:41:47.970526  9701 net.cpp:382] ip1 -> ip1
I20241027 08:41:47.983093  9701 net.cpp:124] Setting up ip1
I20241027 08:41:47.983136  9701 net.cpp:131] Top shape: 100 500 (50000)
I20241027 08:41:47.983150  9701 net.cpp:139] Memory required for data: 7874800
I20241027 08:41:47.983166  9701 layer_factory.hpp:77] Creating layer relu1
I20241027 08:41:47.983184  9701 net.cpp:86] Creating Layer relu1
I20241027 08:41:47.983196  9701 net.cpp:408] relu1 <- ip1
I20241027 08:41:47.983208  9701 net.cpp:369] relu1 -> ip1 (in-place)
I20241027 08:41:47.983223  9701 net.cpp:124] Setting up relu1
I20241027 08:41:47.983233  9701 net.cpp:131] Top shape: 100 500 (50000)
I20241027 08:41:47.983243  9701 net.cpp:139] Memory required for data: 8074800
I20241027 08:41:47.983253  9701 layer_factory.hpp:77] Creating layer ip2
I20241027 08:41:47.983268  9701 net.cpp:86] Creating Layer ip2
I20241027 08:41:47.983276  9701 net.cpp:408] ip2 <- ip1
I20241027 08:41:47.983289  9701 net.cpp:382] ip2 -> ip2
I20241027 08:41:47.983461  9701 net.cpp:124] Setting up ip2
I20241027 08:41:47.983474  9701 net.cpp:131] Top shape: 100 10 (1000)
I20241027 08:41:47.983484  9701 net.cpp:139] Memory required for data: 8078800
I20241027 08:41:47.983496  9701 layer_factory.hpp:77] Creating layer ip2_ip2_0_split
I20241027 08:41:47.983511  9701 net.cpp:86] Creating Layer ip2_ip2_0_split
I20241027 08:41:47.983522  9701 net.cpp:408] ip2_ip2_0_split <- ip2
I20241027 08:41:47.983534  9701 net.cpp:382] ip2_ip2_0_split -> ip2_ip2_0_split_0
I20241027 08:41:47.983547  9701 net.cpp:382] ip2_ip2_0_split -> ip2_ip2_0_split_1
I20241027 08:41:47.983584  9701 net.cpp:124] Setting up ip2_ip2_0_split
I20241027 08:41:47.983594  9701 net.cpp:131] Top shape: 100 10 (1000)
I20241027 08:41:47.983604  9701 net.cpp:131] Top shape: 100 10 (1000)
I20241027 08:41:47.983614  9701 net.cpp:139] Memory required for data: 8086800
I20241027 08:41:47.983624  9701 layer_factory.hpp:77] Creating layer accuracy
I20241027 08:41:47.983646  9701 net.cpp:86] Creating Layer accuracy
I20241027 08:41:47.983677  9701 net.cpp:408] accuracy <- ip2_ip2_0_split_0
I20241027 08:41:47.983690  9701 net.cpp:408] accuracy <- label_mnist_1_split_0
I20241027 08:41:47.983701  9701 net.cpp:382] accuracy -> accuracy
…
