…
I20241027 09:03:37.277084 10182 net.cpp:296] The NetState phase (0) differed from the phase (1) specified by a rule in layer mnist
I20241027 09:03:37.277119 10182 net.cpp:296] The NetState phase (0) differed from the phase (1) specified by a rule in layer accuracy
I20241027 09:03:37.277130 10182 net.cpp:53] Initializing net from parameters: 
name: "LeNet"
state {
  phase: TRAIN
  level: 0
  stage: ""
}
layer {
  name: "mnist"
  type: "Data"
  top: "data"
  top: "label"
  include {
    phase: TRAIN
  }
  transform_param {
    scale: 0.00390625
  }
  data_param {
    source: "examples/mnist/mnist_train_lmdb"
    batch_size: 64
    backend: LMDB
  }
}
layer {
  name: "conv1"
  type: "Convolution"
  bottom: "data"
  top: "conv1"
  param {
    lr_mult: 1
  }
  param {
    lr_mult: 2
  }
  convolution_param {
    num_output: 20
    kernel_size: 5
    stride: 1
    weight_filler {
      type: "xavier"
    }
    bias_filler {
      type: "constant"
    }
  }
}
layer {
  name: "pool1"
  type: "Pooling"
  bottom: "conv1"
  top: "pool1"
  pooling_param {
    pool: MAX
    kernel_size: 2
    stride: 2
  }
}
layer {
  name: "conv2"
  type: "Convolution"
  bottom: "pool1"
  top: "conv2"
  param {
    lr_mult: 1
  }
  param {
    lr_mult: 2
  }
  convolution_param {
    num_output: 50
    kernel_size: 5
    stride: 1
    weight_filler {
      type: "xavier"
    }
    bias_filler {
      type: "constant"
    }
  }
}
layer {
  name: "pool2"
  type: "Pooling"
  bottom: "conv2"
  top: "pool2"
  pooling_param {
    pool: MAX
    kernel_size: 2
    stride: 2
  }
}
layer {
  name: "ip1"
  type: "InnerProduct"
  bottom: "pool2"
  top: "ip1"
  param {
    lr_mult: 1
  }
  param {
    lr_mult: 2
  }
  inner_product_param {
    num_output: 500
    weight_filler {
      type: "xavier"
    }
    bias_filler {
      type: "constant"
    }
  }
}
layer {
  name: "sigmoid1"
  type: "Sigmoid"
  bottom: "ip1"
  top: "ip1"
}
layer {
  name: "ip2"
  type: "InnerProduct"
  bottom: "ip1"
  top: "ip2"
  param {
    lr_mult: 1
  }
  param {
    lr_mult: 2
  }
  inner_product_param {
    num_output: 10
    weight_filler {
      type: "xavier"
    }
    bias_filler {
      type: "constant"
    }
  }
}
layer {
  name: "loss"
  type: "SoftmaxWithLoss"
  bottom: "ip2"
  bottom: "label"
  top: "loss"
}
I20241027 09:03:37.277271 10182 layer_factory.hpp:77] Creating layer mnist
I20241027 09:03:37.314071 10182 db_lmdb.cpp:35] Opened lmdb examples/mnist/mnist_train_lmdb
I20241027 09:03:37.316711 10182 net.cpp:86] Creating Layer mnist
I20241027 09:03:37.316789 10182 net.cpp:382] mnist -> data
I20241027 09:03:37.316879 10182 net.cpp:382] mnist -> label
I20241027 09:03:37.319886 10182 data_layer.cpp:45] output data size: 64,1,28,28
I20241027 09:03:37.321043 10182 net.cpp:124] Setting up mnist
I20241027 09:03:37.321098 10182 net.cpp:131] Top shape: 64 1 28 28 (50176)
I20241027 09:03:37.321141 10182 net.cpp:131] Top shape: 64 (64)
I20241027 09:03:37.321169 10182 net.cpp:139] Memory required for data: 200960
I20241027 09:03:37.321202 10182 layer_factory.hpp:77] Creating layer conv1
I20241027 09:03:37.321265 10182 net.cpp:86] Creating Layer conv1
I20241027 09:03:37.321301 10182 net.cpp:408] conv1 <- data
I20241027 09:03:37.321350 10182 net.cpp:382] conv1 -> conv1
I20241027 09:03:37.322295 10182 net.cpp:124] Setting up conv1
I20241027 09:03:37.322346 10182 net.cpp:131] Top shape: 64 20 24 24 (737280)
I20241027 09:03:37.322396 10182 net.cpp:139] Memory required for data: 3150080
I20241027 09:03:37.322506 10182 layer_factory.hpp:77] Creating layer pool1
I20241027 09:03:37.322547 10182 net.cpp:86] Creating Layer pool1
I20241027 09:03:37.322573 10182 net.cpp:408] pool1 <- conv1
I20241027 09:03:37.322605 10182 net.cpp:382] pool1 -> pool1
I20241027 09:03:37.322717 10182 net.cpp:124] Setting up pool1
I20241027 09:03:37.322746 10182 net.cpp:131] Top shape: 64 20 12 12 (184320)
I20241027 09:03:37.322774 10182 net.cpp:139] Memory required for data: 3887360
I20241027 09:03:37.322798 10182 layer_factory.hpp:77] Creating layer conv2
I20241027 09:03:37.322839 10182 net.cpp:86] Creating Layer conv2
I20241027 09:03:37.322863 10182 net.cpp:408] conv2 <- pool1
I20241027 09:03:37.322896 10182 net.cpp:382] conv2 -> conv2
I20241027 09:03:37.324183 10182 net.cpp:124] Setting up conv2
I20241027 09:03:37.324218 10182 net.cpp:131] Top shape: 64 50 8 8 (204800)
I20241027 09:03:37.324247 10182 net.cpp:139] Memory required for data: 4706560
I20241027 09:03:37.324280 10182 layer_factory.hpp:77] Creating layer pool2
I20241027 09:03:37.324317 10182 net.cpp:86] Creating Layer pool2
I20241027 09:03:37.324343 10182 net.cpp:408] pool2 <- conv2
I20241027 09:03:37.324373 10182 net.cpp:382] pool2 -> pool2
I20241027 09:03:37.324453 10182 net.cpp:124] Setting up pool2
I20241027 09:03:37.324481 10182 net.cpp:131] Top shape: 64 50 4 4 (51200)
I20241027 09:03:37.324518 10182 net.cpp:139] Memory required for data: 4911360
I20241027 09:03:37.324543 10182 layer_factory.hpp:77] Creating layer ip1
I20241027 09:03:37.324579 10182 net.cpp:86] Creating Layer ip1
I20241027 09:03:37.324605 10182 net.cpp:408] ip1 <- pool2
I20241027 09:03:37.324636 10182 net.cpp:382] ip1 -> ip1
I20241027 09:03:37.335366 10182 net.cpp:124] Setting up ip1
I20241027 09:03:37.335405 10182 net.cpp:131] Top shape: 64 500 (32000)
I20241027 09:03:37.335420 10182 net.cpp:139] Memory required for data: 5039360
I20241027 09:03:37.335440 10182 layer_factory.hpp:77] Creating layer sigmoid1
I20241027 09:03:37.335458 10182 net.cpp:86] Creating Layer sigmoid1
I20241027 09:03:37.335471 10182 net.cpp:408] sigmoid1 <- ip1
I20241027 09:03:37.335491 10182 net.cpp:369] sigmoid1 -> ip1 (in-place)
I20241027 09:03:37.335515 10182 net.cpp:124] Setting up sigmoid1
I20241027 09:03:37.335526 10182 net.cpp:131] Top shape: 64 500 (32000)
I20241027 09:03:37.335539 10182 net.cpp:139] Memory required for data: 5167360
I20241027 09:03:37.335551 10182 layer_factory.hpp:77] Creating layer ip2
I20241027 09:03:37.335566 10182 net.cpp:86] Creating Layer ip2
I20241027 09:03:37.335577 10182 net.cpp:408] ip2 <- ip1
I20241027 09:03:37.335592 10182 net.cpp:382] ip2 -> ip2
I20241027 09:03:37.335774 10182 net.cpp:124] Setting up ip2
I20241027 09:03:37.335788 10182 net.cpp:131] Top shape: 64 10 (640)
I20241027 09:03:37.335799 10182 net.cpp:139] Memory required for data: 5169920
I20241027 09:03:37.335813 10182 layer_factory.hpp:77] Creating layer loss
I20241027 09:03:37.335829 10182 net.cpp:86] Creating Layer loss
I20241027 09:03:37.335841 10182 net.cpp:408] loss <- ip2
I20241027 09:03:37.335853 10182 net.cpp:408] loss <- label
I20241027 09:03:37.335867 10182 net.cpp:382] loss -> loss
…
I20241027 09:03:37.337361 10182 solver.cpp:190] Creating test net (#0) specified by net file: examples/mnist/lenet_train_test_sigmoid.prototxt
I20241027 09:03:37.337440 10182 net.cpp:296] The NetState phase (1) differed from the phase (0) specified by a rule in layer mnist
I20241027 09:03:37.337466 10182 net.cpp:53] Initializing net from parameters: 
name: "LeNet"
state {
  phase: TEST
}
layer {
  name: "mnist"
  type: "Data"
  top: "data"
  top: "label"
  include {
    phase: TEST
  }
  transform_param {
    scale: 0.00390625
  }
  data_param {
    source: "examples/mnist/mnist_test_lmdb"
    batch_size: 100
    backend: LMDB
  }
}
layer {
  name: "conv1"
  type: "Convolution"
  bottom: "data"
  top: "conv1"
  param {
    lr_mult: 1
  }
  param {
    lr_mult: 2
  }
  convolution_param {
    num_output: 20
    kernel_size: 5
    stride: 1
    weight_filler {
      type: "xavier"
    }
    bias_filler {
      type: "constant"
    }
  }
}
layer {
  name: "pool1"
  type: "Pooling"
  bottom: "conv1"
  top: "pool1"
  pooling_param {
    pool: MAX
    kernel_size: 2
    stride: 2
  }
}
layer {
  name: "conv2"
  type: "Convolution"
  bottom: "pool1"
  top: "conv2"
  param {
    lr_mult: 1
  }
  param {
    lr_mult: 2
  }
  convolution_param {
    num_output: 50
    kernel_size: 5
    stride: 1
    weight_filler {
      type: "xavier"
    }
    bias_filler {
      type: "constant"
    }
  }
}
layer {
  name: "pool2"
  type: "Pooling"
  bottom: "conv2"
  top: "pool2"
  pooling_param {
    pool: MAX
    kernel_size: 2
    stride: 2
  }
}
layer {
  name: "ip1"
  type: "InnerProduct"
  bottom: "pool2"
  top: "ip1"
  param {
    lr_mult: 1
  }
  param {
    lr_mult: 2
  }
  inner_product_param {
    num_output: 500
    weight_filler {
      type: "xavier"
    }
    bias_filler {
      type: "constant"
    }
  }
}
layer {
  name: "sigmoid1"
  type: "Sigmoid"
  bottom: "ip1"
  top: "ip1"
}
layer {
  name: "ip2"
  type: "InnerProduct"
  bottom: "ip1"
  top: "ip2"
  param {
    lr_mult: 1
  }
  param {
    lr_mult: 2
  }
  inner_product_param {
    num_output: 10
    weight_filler {
      type: "xavier"
    }
    bias_filler {
      type: "constant"
    }
  }
}
layer {
  name: "accuracy"
  type: "Accuracy"
  bottom: "ip2"
  bottom: "label"
  top: "accuracy"
  include {
    phase: TEST
  }
}
layer {
  name: "loss"
  type: "SoftmaxWithLoss"
  bottom: "ip2"
  bottom: "label"
  top: "loss"
}
I20241027 09:03:37.337721 10182 layer_factory.hpp:77] Creating layer mnist
I20241027 09:03:37.355950 10182 db_lmdb.cpp:35] Opened lmdb examples/mnist/mnist_test_lmdb
I20241027 09:03:37.357427 10182 net.cpp:86] Creating Layer mnist
I20241027 09:03:37.357475 10182 net.cpp:382] mnist -> data
I20241027 09:03:37.357506 10182 net.cpp:382] mnist -> label
I20241027 09:03:37.357676 10182 data_layer.cpp:45] output data size: 100,1,28,28
I20241027 09:03:37.358896 10182 net.cpp:124] Setting up mnist
I20241027 09:03:37.358951 10182 net.cpp:131] Top shape: 100 1 28 28 (78400)
I20241027 09:03:37.358986 10182 net.cpp:131] Top shape: 100 (100)
I20241027 09:03:37.359030 10182 net.cpp:139] Memory required for data: 314000
I20241027 09:03:37.359056 10182 layer_factory.hpp:77] Creating layer label_mnist_1_split
I20241027 09:03:37.359108 10182 net.cpp:86] Creating Layer label_mnist_1_split
I20241027 09:03:37.359136 10182 net.cpp:408] label_mnist_1_split <- label
I20241027 09:03:37.359167 10182 net.cpp:382] label_mnist_1_split -> label_mnist_1_split_0
I20241027 09:03:37.359208 10182 net.cpp:382] label_mnist_1_split -> label_mnist_1_split_1
I20241027 09:03:37.359624 10182 net.cpp:124] Setting up label_mnist_1_split
I20241027 09:03:37.359663 10182 net.cpp:131] Top shape: 100 (100)
I20241027 09:03:37.359690 10182 net.cpp:131] Top shape: 100 (100)
I20241027 09:03:37.359740 10182 net.cpp:139] Memory required for data: 314800
I20241027 09:03:37.359795 10182 layer_factory.hpp:77] Creating layer conv1
I20241027 09:03:37.359845 10182 net.cpp:86] Creating Layer conv1
I20241027 09:03:37.359869 10182 net.cpp:408] conv1 <- data
I20241027 09:03:37.359897 10182 net.cpp:382] conv1 -> conv1
I20241027 09:03:37.360397 10182 net.cpp:124] Setting up conv1
I20241027 09:03:37.360425 10182 net.cpp:131] Top shape: 100 20 24 24 (1152000)
I20241027 09:03:37.360455 10182 net.cpp:139] Memory required for data: 4922800
I20241027 09:03:37.360491 10182 layer_factory.hpp:77] Creating layer pool1
I20241027 09:03:37.360522 10182 net.cpp:86] Creating Layer pool1
I20241027 09:03:37.360545 10182 net.cpp:408] pool1 <- conv1
I20241027 09:03:37.360572 10182 net.cpp:382] pool1 -> pool1
I20241027 09:03:37.360653 10182 net.cpp:124] Setting up pool1
I20241027 09:03:37.360677 10182 net.cpp:131] Top shape: 100 20 12 12 (288000)
I20241027 09:03:37.360702 10182 net.cpp:139] Memory required for data: 6074800
I20241027 09:03:37.360723 10182 layer_factory.hpp:77] Creating layer conv2
I20241027 09:03:37.360762 10182 net.cpp:86] Creating Layer conv2
I20241027 09:03:37.360787 10182 net.cpp:408] conv2 <- pool1
I20241027 09:03:37.360814 10182 net.cpp:382] conv2 -> conv2
I20241027 09:03:37.361956 10182 net.cpp:124] Setting up conv2
I20241027 09:03:37.361991 10182 net.cpp:131] Top shape: 100 50 8 8 (320000)
I20241027 09:03:37.362038 10182 net.cpp:139] Memory required for data: 7354800
I20241027 09:03:37.362071 10182 layer_factory.hpp:77] Creating layer pool2
I20241027 09:03:37.362110 10182 net.cpp:86] Creating Layer pool2
I20241027 09:03:37.362136 10182 net.cpp:408] pool2 <- conv2
I20241027 09:03:37.362164 10182 net.cpp:382] pool2 -> pool2
I20241027 09:03:37.362254 10182 net.cpp:124] Setting up pool2
I20241027 09:03:37.362285 10182 net.cpp:131] Top shape: 100 50 4 4 (80000)
I20241027 09:03:37.362318 10182 net.cpp:139] Memory required for data: 7674800
I20241027 09:03:37.362344 10182 layer_factory.hpp:77] Creating layer ip1
I20241027 09:03:37.362377 10182 net.cpp:86] Creating Layer ip1
I20241027 09:03:37.362406 10182 net.cpp:408] ip1 <- pool2
I20241027 09:03:37.362439 10182 net.cpp:382] ip1 -> ip1
I20241027 09:03:37.375156 10182 net.cpp:124] Setting up ip1
I20241027 09:03:37.375200 10182 net.cpp:131] Top shape: 100 500 (50000)
I20241027 09:03:37.375213 10182 net.cpp:139] Memory required for data: 7874800
I20241027 09:03:37.375232 10182 layer_factory.hpp:77] Creating layer sigmoid1
I20241027 09:03:37.375253 10182 net.cpp:86] Creating Layer sigmoid1
I20241027 09:03:37.375267 10182 net.cpp:408] sigmoid1 <- ip1
I20241027 09:03:37.375281 10182 net.cpp:369] sigmoid1 -> ip1 (in-place)
I20241027 09:03:37.375299 10182 net.cpp:124] Setting up sigmoid1
I20241027 09:03:37.375311 10182 net.cpp:131] Top shape: 100 500 (50000)
I20241027 09:03:37.375324 10182 net.cpp:139] Memory required for data: 8074800
I20241027 09:03:37.375334 10182 layer_factory.hpp:77] Creating layer ip2
I20241027 09:03:37.375351 10182 net.cpp:86] Creating Layer ip2
I20241027 09:03:37.375362 10182 net.cpp:408] ip2 <- ip1
I20241027 09:03:37.375381 10182 net.cpp:382] ip2 -> ip2
I20241027 09:03:37.375567 10182 net.cpp:124] Setting up ip2
I20241027 09:03:37.375581 10182 net.cpp:131] Top shape: 100 10 (1000)
I20241027 09:03:37.375592 10182 net.cpp:139] Memory required for data: 8078800
I20241027 09:03:37.375607 10182 layer_factory.hpp:77] Creating layer ip2_ip2_0_split
I20241027 09:03:37.375625 10182 net.cpp:86] Creating Layer ip2_ip2_0_split
I20241027 09:03:37.375636 10182 net.cpp:408] ip2_ip2_0_split <- ip2
I20241027 09:03:37.375651 10182 net.cpp:382] ip2_ip2_0_split -> ip2_ip2_0_split_0
I20241027 09:03:37.375667 10182 net.cpp:382] ip2_ip2_0_split -> ip2_ip2_0_split_1
I20241027 09:03:37.375710 10182 net.cpp:124] Setting up ip2_ip2_0_split
I20241027 09:03:37.375722 10182 net.cpp:131] Top shape: 100 10 (1000)
I20241027 09:03:37.375734 10182 net.cpp:131] Top shape: 100 10 (1000)
I20241027 09:03:37.375746 10182 net.cpp:139] Memory required for data: 8086800
I20241027 09:03:37.375766 10182 layer_factory.hpp:77] Creating layer accuracy
I20241027 09:03:37.375805 10182 net.cpp:86] Creating Layer accuracy
I20241027 09:03:37.375818 10182 net.cpp:408] accuracy <- ip2_ip2_0_split_0
I20241027 09:03:37.375831 10182 net.cpp:408] accuracy <- label_mnist_1_split_0
I20241027 09:03:37.375845 10182 net.cpp:382] accuracy -> accuracy
…
