…
I20241027 08:25:08.636474  9629 net.cpp:296] The NetState phase (0) differed from the phase (1) specified by a rule in layer mnist
I20241027 08:25:08.636546  9629 net.cpp:296] The NetState phase (0) differed from the phase (1) specified by a rule in layer accuracy
I20241027 08:25:08.636572  9629 net.cpp:53] Initializing net from parameters: 
name: "LeNet"
state {
  phase: TRAIN
  level: 0
  stage: ""
}
layer {
  name: "mnist"
  type: "Data"
  top: "data"
  top: "label"
  include {
    phase: TRAIN
  }
  transform_param {
    scale: 0.00390625
  }
  data_param {
    source: "examples/mnist/mnist_train_lmdb"
    batch_size: 64
    backend: LMDB
  }
}
layer {
  name: "conv1"
  type: "Convolution"
  bottom: "data"
  top: "conv1"
  param {
    lr_mult: 1
  }
  param {
    lr_mult: 2
  }
  convolution_param {
    num_output: 20
    kernel_size: 5
    stride: 1
    weight_filler {
      type: "xavier"
    }
    bias_filler {
      type: "constant"
    }
  }
}
layer {
  name: "pool1"
  type: "Pooling"
  bottom: "conv1"
  top: "pool1"
  pooling_param {
    pool: MAX
    kernel_size: 2
    stride: 2
  }
}
layer {
  name: "conv2"
  type: "Convolution"
  bottom: "pool1"
  top: "conv2"
  param {
    lr_mult: 1
  }
  param {
    lr_mult: 2
  }
  convolution_param {
    num_output: 50
    kernel_size: 5
    stride: 1
    weight_filler {
      type: "xavier"
    }
    bias_filler {
      type: "constant"
    }
  }
}
layer {
  name: "pool2"
  type: "Pooling"
  bottom: "conv2"
  top: "pool2"
  pooling_param {
    pool: MAX
    kernel_size: 2
    stride: 2
  }
}
layer {
  name: "ip1"
  type: "InnerProduct"
  bottom: "pool2"
  top: "ip1"
  param {
    lr_mult: 1
  }
  param {
    lr_mult: 2
  }
  inner_product_param {
    num_output: 500
    weight_filler {
      type: "xavier"
    }
    bias_filler {
      type: "constant"
    }
  }
}
layer {
  name: "relu1"
  type: "ReLU"
  bottom: "ip1"
  top: "ip1"
}
layer {
  name: "ip2"
  type: "InnerProduct"
  bottom: "ip1"
  top: "ip2"
  param {
    lr_mult: 1
  }
  param {
    lr_mult: 2
  }
  inner_product_param {
    num_output: 10
    weight_filler {
      type: "xavier"
    }
    bias_filler {
      type: "constant"
    }
  }
}
layer {
  name: "loss"
  type: "SoftmaxWithLoss"
  bottom: "ip2"
  bottom: "label"
  top: "loss"
}
I20241027 08:25:08.638037  9629 layer_factory.hpp:77] Creating layer mnist
I20241027 08:25:08.753417  9629 db_lmdb.cpp:35] Opened lmdb examples/mnist/mnist_train_lmdb
I20241027 08:25:08.794377  9629 net.cpp:86] Creating Layer mnist
I20241027 08:25:08.794457  9629 net.cpp:382] mnist -> data
I20241027 08:25:08.794543  9629 net.cpp:382] mnist -> label
I20241027 08:25:08.797564  9629 data_layer.cpp:45] output data size: 64,1,28,28
I20241027 08:25:08.809767  9629 net.cpp:124] Setting up mnist
I20241027 08:25:08.809844  9629 net.cpp:131] Top shape: 64 1 28 28 (50176)
I20241027 08:25:08.809890  9629 net.cpp:131] Top shape: 64 (64)
I20241027 08:25:08.809918  9629 net.cpp:139] Memory required for data: 200960
I20241027 08:25:08.809954  9629 layer_factory.hpp:77] Creating layer conv1
I20241027 08:25:08.810058  9629 net.cpp:86] Creating Layer conv1
I20241027 08:25:08.810096  9629 net.cpp:408] conv1 <- data
I20241027 08:25:08.810146  9629 net.cpp:382] conv1 -> conv1
I20241027 08:25:08.811767  9629 net.cpp:124] Setting up conv1
I20241027 08:25:08.811822  9629 net.cpp:131] Top shape: 64 20 24 24 (737280)
I20241027 08:25:08.811856  9629 net.cpp:139] Memory required for data: 3150080
I20241027 08:25:08.811924  9629 layer_factory.hpp:77] Creating layer pool1
I20241027 08:25:08.812042  9629 net.cpp:86] Creating Layer pool1
I20241027 08:25:08.812074  9629 net.cpp:408] pool1 <- conv1
I20241027 08:25:08.812110  9629 net.cpp:382] pool1 -> pool1
I20241027 08:25:08.812222  9629 net.cpp:124] Setting up pool1
I20241027 08:25:08.812250  9629 net.cpp:131] Top shape: 64 20 12 12 (184320)
I20241027 08:25:08.812280  9629 net.cpp:139] Memory required for data: 3887360
I20241027 08:25:08.812307  9629 layer_factory.hpp:77] Creating layer conv2
I20241027 08:25:08.812350  9629 net.cpp:86] Creating Layer conv2
I20241027 08:25:08.812376  9629 net.cpp:408] conv2 <- pool1
I20241027 08:25:08.812409  9629 net.cpp:382] conv2 -> conv2
I20241027 08:25:08.813722  9629 net.cpp:124] Setting up conv2
I20241027 08:25:08.813764  9629 net.cpp:131] Top shape: 64 50 8 8 (204800)
I20241027 08:25:08.813796  9629 net.cpp:139] Memory required for data: 4706560
I20241027 08:25:08.813833  9629 layer_factory.hpp:77] Creating layer pool2
I20241027 08:25:08.813880  9629 net.cpp:86] Creating Layer pool2
I20241027 08:25:08.813908  9629 net.cpp:408] pool2 <- conv2
I20241027 08:25:08.813941  9629 net.cpp:382] pool2 -> pool2
I20241027 08:25:08.814046  9629 net.cpp:124] Setting up pool2
I20241027 08:25:08.814085  9629 net.cpp:131] Top shape: 64 50 4 4 (51200)
I20241027 08:25:08.814122  9629 net.cpp:139] Memory required for data: 4911360
I20241027 08:25:08.814154  9629 layer_factory.hpp:77] Creating layer ip1
I20241027 08:25:08.814224  9629 net.cpp:86] Creating Layer ip1
I20241027 08:25:08.814256  9629 net.cpp:408] ip1 <- pool2
I20241027 08:25:08.814292  9629 net.cpp:382] ip1 -> ip1
I20241027 08:25:08.825316  9629 net.cpp:124] Setting up ip1
I20241027 08:25:08.825363  9629 net.cpp:131] Top shape: 64 500 (32000)
I20241027 08:25:08.825379  9629 net.cpp:139] Memory required for data: 5039360
I20241027 08:25:08.825400  9629 layer_factory.hpp:77] Creating layer relu1
I20241027 08:25:08.825418  9629 net.cpp:86] Creating Layer relu1
I20241027 08:25:08.825433  9629 net.cpp:408] relu1 <- ip1
I20241027 08:25:08.825448  9629 net.cpp:369] relu1 -> ip1 (in-place)
I20241027 08:25:08.825472  9629 net.cpp:124] Setting up relu1
I20241027 08:25:08.825485  9629 net.cpp:131] Top shape: 64 500 (32000)
I20241027 08:25:08.825498  9629 net.cpp:139] Memory required for data: 5167360
I20241027 08:25:08.825510  9629 layer_factory.hpp:77] Creating layer ip2
I20241027 08:25:08.825532  9629 net.cpp:86] Creating Layer ip2
I20241027 08:25:08.825546  9629 net.cpp:408] ip2 <- ip1
I20241027 08:25:08.825562  9629 net.cpp:382] ip2 -> ip2
I20241027 08:25:08.825762  9629 net.cpp:124] Setting up ip2
I20241027 08:25:08.825776  9629 net.cpp:131] Top shape: 64 10 (640)
I20241027 08:25:08.825789  9629 net.cpp:139] Memory required for data: 5169920
I20241027 08:25:08.825804  9629 layer_factory.hpp:77] Creating layer loss
I20241027 08:25:08.825822  9629 net.cpp:86] Creating Layer loss
I20241027 08:25:08.825835  9629 net.cpp:408] loss <- ip2
I20241027 08:25:08.825848  9629 net.cpp:408] loss <- label
I20241027 08:25:08.825863  9629 net.cpp:382] loss -> loss
…
I20241027 08:25:08.829910  9629 solver.cpp:190] Creating test net (#0) specified by net file: examples/mnist/lenet_train_test.prototxt
I20241027 08:25:08.829994  9629 net.cpp:296] The NetState phase (1) differed from the phase (0) specified by a rule in layer mnist
I20241027 08:25:08.830042  9629 net.cpp:53] Initializing net from parameters: 
name: "LeNet"
state {
  phase: TEST
}
layer {
  name: "mnist"
  type: "Data"
  top: "data"
  top: "label"
  include {
    phase: TEST
  }
  transform_param {
    scale: 0.00390625
  }
  data_param {
    source: "examples/mnist/mnist_test_lmdb"
    batch_size: 100
    backend: LMDB
  }
}
layer {
  name: "conv1"
  type: "Convolution"
  bottom: "data"
  top: "conv1"
  param {
    lr_mult: 1
  }
  param {
    lr_mult: 2
  }
  convolution_param {
    num_output: 20
    kernel_size: 5
    stride: 1
    weight_filler {
      type: "xavier"
    }
    bias_filler {
      type: "constant"
    }
  }
}
layer {
  name: "pool1"
  type: "Pooling"
  bottom: "conv1"
  top: "pool1"
  pooling_param {
    pool: MAX
    kernel_size: 2
    stride: 2
  }
}
layer {
  name: "conv2"
  type: "Convolution"
  bottom: "pool1"
  top: "conv2"
  param {
    lr_mult: 1
  }
  param {
    lr_mult: 2
  }
  convolution_param {
    num_output: 50
    kernel_size: 5
    stride: 1
    weight_filler {
      type: "xavier"
    }
    bias_filler {
      type: "constant"
    }
  }
}
layer {
  name: "pool2"
  type: "Pooling"
  bottom: "conv2"
  top: "pool2"
  pooling_param {
    pool: MAX
    kernel_size: 2
    stride: 2
  }
}
layer {
  name: "ip1"
  type: "InnerProduct"
  bottom: "pool2"
  top: "ip1"
  param {
    lr_mult: 1
  }
  param {
    lr_mult: 2
  }
  inner_product_param {
    num_output: 500
    weight_filler {
      type: "xavier"
    }
    bias_filler {
      type: "constant"
    }
  }
}
layer {
  name: "relu1"
  type: "ReLU"
  bottom: "ip1"
  top: "ip1"
}
layer {
  name: "ip2"
  type: "InnerProduct"
  bottom: "ip1"
  top: "ip2"
  param {
    lr_mult: 1
  }
  param {
    lr_mult: 2
  }
  inner_product_param {
    num_output: 10
    weight_filler {
      type: "xavier"
    }
    bias_filler {
      type: "constant"
    }
  }
}
layer {
  name: "accuracy"
  type: "Accuracy"
  bottom: "ip2"
  bottom: "label"
  top: "accuracy"
  include {
    phase: TEST
  }
}
layer {
  name: "loss"
  type: "SoftmaxWithLoss"
  bottom: "ip2"
  bottom: "label"
  top: "loss"
}
I20241027 08:25:08.830310  9629 layer_factory.hpp:77] Creating layer mnist
I20241027 08:25:08.878423  9629 db_lmdb.cpp:35] Opened lmdb examples/mnist/mnist_test_lmdb
I20241027 08:25:08.890869  9629 net.cpp:86] Creating Layer mnist
I20241027 08:25:08.890954  9629 net.cpp:382] mnist -> data
I20241027 08:25:08.890990  9629 net.cpp:382] mnist -> label
I20241027 08:25:08.891199  9629 data_layer.cpp:45] output data size: 100,1,28,28
I20241027 08:25:08.892567  9629 net.cpp:124] Setting up mnist
I20241027 08:25:08.892630  9629 net.cpp:131] Top shape: 100 1 28 28 (78400)
I20241027 08:25:08.892669  9629 net.cpp:131] Top shape: 100 (100)
I20241027 08:25:08.892699  9629 net.cpp:139] Memory required for data: 314000
I20241027 08:25:08.892727  9629 layer_factory.hpp:77] Creating layer label_mnist_1_split
I20241027 08:25:08.892766  9629 net.cpp:86] Creating Layer label_mnist_1_split
I20241027 08:25:08.892796  9629 net.cpp:408] label_mnist_1_split <- label
I20241027 08:25:08.892833  9629 net.cpp:382] label_mnist_1_split -> label_mnist_1_split_0
I20241027 08:25:08.892879  9629 net.cpp:382] label_mnist_1_split -> label_mnist_1_split_1
I20241027 08:25:08.893323  9629 net.cpp:124] Setting up label_mnist_1_split
I20241027 08:25:08.893368  9629 net.cpp:131] Top shape: 100 (100)
I20241027 08:25:08.893399  9629 net.cpp:131] Top shape: 100 (100)
I20241027 08:25:08.893429  9629 net.cpp:139] Memory required for data: 314800
I20241027 08:25:08.893472  9629 layer_factory.hpp:77] Creating layer conv1
I20241027 08:25:08.893561  9629 net.cpp:86] Creating Layer conv1
I20241027 08:25:08.893589  9629 net.cpp:408] conv1 <- data
I20241027 08:25:08.893621  9629 net.cpp:382] conv1 -> conv1
I20241027 08:25:08.894186  9629 net.cpp:124] Setting up conv1
I20241027 08:25:08.894222  9629 net.cpp:131] Top shape: 100 20 24 24 (1152000)
I20241027 08:25:08.894254  9629 net.cpp:139] Memory required for data: 4922800
I20241027 08:25:08.894302  9629 layer_factory.hpp:77] Creating layer pool1
I20241027 08:25:08.894333  9629 net.cpp:86] Creating Layer pool1
I20241027 08:25:08.894359  9629 net.cpp:408] pool1 <- conv1
I20241027 08:25:08.894389  9629 net.cpp:382] pool1 -> pool1
I20241027 08:25:08.894493  9629 net.cpp:124] Setting up pool1
I20241027 08:25:08.894522  9629 net.cpp:131] Top shape: 100 20 12 12 (288000)
I20241027 08:25:08.894551  9629 net.cpp:139] Memory required for data: 6074800
I20241027 08:25:08.894575  9629 layer_factory.hpp:77] Creating layer conv2
I20241027 08:25:08.894613  9629 net.cpp:86] Creating Layer conv2
I20241027 08:25:08.894639  9629 net.cpp:408] conv2 <- pool1
I20241027 08:25:08.894678  9629 net.cpp:382] conv2 -> conv2
I20241027 08:25:08.895925  9629 net.cpp:124] Setting up conv2
I20241027 08:25:08.895960  9629 net.cpp:131] Top shape: 100 50 8 8 (320000)
I20241027 08:25:08.895993  9629 net.cpp:139] Memory required for data: 7354800
I20241027 08:25:08.896047  9629 layer_factory.hpp:77] Creating layer pool2
I20241027 08:25:08.896080  9629 net.cpp:86] Creating Layer pool2
I20241027 08:25:08.896108  9629 net.cpp:408] pool2 <- conv2
I20241027 08:25:08.896148  9629 net.cpp:382] pool2 -> pool2
I20241027 08:25:08.896241  9629 net.cpp:124] Setting up pool2
I20241027 08:25:08.896270  9629 net.cpp:131] Top shape: 100 50 4 4 (80000)
I20241027 08:25:08.896301  9629 net.cpp:139] Memory required for data: 7674800
I20241027 08:25:08.896328  9629 layer_factory.hpp:77] Creating layer ip1
I20241027 08:25:08.896378  9629 net.cpp:86] Creating Layer ip1
I20241027 08:25:08.896412  9629 net.cpp:408] ip1 <- pool2
I20241027 08:25:08.896450  9629 net.cpp:382] ip1 -> ip1
I20241027 08:25:08.908617  9629 net.cpp:124] Setting up ip1
I20241027 08:25:08.908660  9629 net.cpp:131] Top shape: 100 500 (50000)
I20241027 08:25:08.908675  9629 net.cpp:139] Memory required for data: 7874800
I20241027 08:25:08.908697  9629 layer_factory.hpp:77] Creating layer relu1
I20241027 08:25:08.908720  9629 net.cpp:86] Creating Layer relu1
I20241027 08:25:08.908735  9629 net.cpp:408] relu1 <- ip1
I20241027 08:25:08.908751  9629 net.cpp:369] relu1 -> ip1 (in-place)
I20241027 08:25:08.908769  9629 net.cpp:124] Setting up relu1
I20241027 08:25:08.908782  9629 net.cpp:131] Top shape: 100 500 (50000)
I20241027 08:25:08.908794  9629 net.cpp:139] Memory required for data: 8074800
I20241027 08:25:08.908807  9629 layer_factory.hpp:77] Creating layer ip2
I20241027 08:25:08.908825  9629 net.cpp:86] Creating Layer ip2
I20241027 08:25:08.908838  9629 net.cpp:408] ip2 <- ip1
I20241027 08:25:08.908854  9629 net.cpp:382] ip2 -> ip2
I20241027 08:25:08.909081  9629 net.cpp:124] Setting up ip2
I20241027 08:25:08.909098  9629 net.cpp:131] Top shape: 100 10 (1000)
I20241027 08:25:08.909111  9629 net.cpp:139] Memory required for data: 8078800
I20241027 08:25:08.909126  9629 layer_factory.hpp:77] Creating layer ip2_ip2_0_split
I20241027 08:25:08.909147  9629 net.cpp:86] Creating Layer ip2_ip2_0_split
I20241027 08:25:08.909160  9629 net.cpp:408] ip2_ip2_0_split <- ip2
I20241027 08:25:08.909176  9629 net.cpp:382] ip2_ip2_0_split -> ip2_ip2_0_split_0
I20241027 08:25:08.909194  9629 net.cpp:382] ip2_ip2_0_split -> ip2_ip2_0_split_1
I20241027 08:25:08.909241  9629 net.cpp:124] Setting up ip2_ip2_0_split
I20241027 08:25:08.909255  9629 net.cpp:131] Top shape: 100 10 (1000)
I20241027 08:25:08.909268  9629 net.cpp:131] Top shape: 100 10 (1000)
I20241027 08:25:08.909281  9629 net.cpp:139] Memory required for data: 8086800
I20241027 08:25:08.909293  9629 layer_factory.hpp:77] Creating layer accuracy
I20241027 08:25:08.909322  9629 net.cpp:86] Creating Layer accuracy
I20241027 08:25:08.909358  9629 net.cpp:408] accuracy <- ip2_ip2_0_split_0
I20241027 08:25:08.909373  9629 net.cpp:408] accuracy <- label_mnist_1_split_0
I20241027 08:25:08.909389  9629 net.cpp:382] accuracy -> accuracy
…
