…
I20241026 14:35:22.348091 13462 net.cpp:296] The NetState phase (0) differed from the phase (1) specified by a rule in layer mnist
I20241026 14:35:22.348165 13462 net.cpp:296] The NetState phase (0) differed from the phase (1) specified by a rule in layer accuracy
I20241026 14:35:22.348191 13462 net.cpp:53] Initializing net from parameters: 
name: "LeNet"
state {
  phase: TRAIN
  level: 0
  stage: ""
}
layer {
  name: "mnist"
  type: "Data"
  top: "data"
  top: "label"
  include {
    phase: TRAIN
  }
  transform_param {
    scale: 0.00390625
  }
  data_param {
    source: "examples/mnist/mnist_train_lmdb"
    batch_size: 64
    backend: LMDB
  }
}
layer {
  name: "conv1"
  type: "Convolution"
  bottom: "data"
  top: "conv1"
  param {
    lr_mult: 1
  }
  param {
    lr_mult: 2
  }
  convolution_param {
    num_output: 20
    kernel_size: 5
    stride: 1
    weight_filler {
      type: "xavier"
    }
    bias_filler {
      type: "constant"
    }
  }
}
layer {
  name: "pool1"
  type: "Pooling"
  bottom: "conv1"
  top: "pool1"
  pooling_param {
    pool: MAX
    kernel_size: 2
    stride: 2
  }
}
layer {
  name: "conv2"
  type: "Convolution"
  bottom: "pool1"
  top: "conv2"
  param {
    lr_mult: 1
  }
  param {
    lr_mult: 2
  }
  convolution_param {
    num_output: 50
    kernel_size: 5
    stride: 1
    weight_filler {
      type: "xavier"
    }
    bias_filler {
      type: "constant"
    }
  }
}
layer {
  name: "pool2"
  type: "Pooling"
  bottom: "conv2"
  top: "pool2"
  pooling_param {
    pool: MAX
    kernel_size: 2
    stride: 2
  }
}
layer {
  name: "ip1"
  type: "InnerProduct"
  bottom: "pool2"
  top: "ip1"
  param {
    lr_mult: 1
  }
  param {
    lr_mult: 2
  }
  inner_product_param {
    num_output: 500
    weight_filler {
      type: "xavier"
    }
    bias_filler {
      type: "constant"
    }
  }
}
layer {
  name: "relu1"
  type: "ReLU"
  bottom: "ip1"
  top: "ip1"
}
layer {
  name: "ip2"
  type: "InnerProduct"
  bottom: "ip1"
  top: "ip2"
  param {
    lr_mult: 1
  }
  param {
    lr_mult: 2
  }
  inner_product_param {
    num_output: 10
    weight_filler {
      type: "xavier"
    }
    bias_filler {
      type: "constant"
    }
  }
}
layer {
  name: "loss"
  type: "SoftmaxWithLoss"
  bottom: "ip2"
  bottom: "label"
  top: "loss"
}
I20241026 14:35:22.349534 13462 layer_factory.hpp:77] Creating layer mnist
I20241026 14:35:22.670703 13462 db_lmdb.cpp:35] Opened lmdb examples/mnist/mnist_train_lmdb
I20241026 14:35:22.723042 13462 net.cpp:86] Creating Layer mnist
I20241026 14:35:22.723124 13462 net.cpp:382] mnist -> data
I20241026 14:35:22.723209 13462 net.cpp:382] mnist -> label
I20241026 14:35:22.726267 13462 data_layer.cpp:45] output data size: 64,1,28,28
I20241026 14:35:22.727402 13462 net.cpp:124] Setting up mnist
I20241026 14:35:22.727460 13462 net.cpp:131] Top shape: 64 1 28 28 (50176)
I20241026 14:35:22.727505 13462 net.cpp:131] Top shape: 64 (64)
I20241026 14:35:22.727535 13462 net.cpp:139] Memory required for data: 200960
I20241026 14:35:22.727571 13462 layer_factory.hpp:77] Creating layer conv1
I20241026 14:35:22.727640 13462 net.cpp:86] Creating Layer conv1
I20241026 14:35:22.727677 13462 net.cpp:408] conv1 <- data
I20241026 14:35:22.727727 13462 net.cpp:382] conv1 -> conv1
I20241026 14:35:22.729929 13462 net.cpp:124] Setting up conv1
I20241026 14:35:22.729984 13462 net.cpp:131] Top shape: 64 20 24 24 (737280)
I20241026 14:35:22.730020 13462 net.cpp:139] Memory required for data: 3150080
I20241026 14:35:22.730095 13462 layer_factory.hpp:77] Creating layer pool1
I20241026 14:35:22.730212 13462 net.cpp:86] Creating Layer pool1
I20241026 14:35:22.730245 13462 net.cpp:408] pool1 <- conv1
I20241026 14:35:22.730284 13462 net.cpp:382] pool1 -> pool1
I20241026 14:35:22.730394 13462 net.cpp:124] Setting up pool1
I20241026 14:35:22.730424 13462 net.cpp:131] Top shape: 64 20 12 12 (184320)
I20241026 14:35:22.730458 13462 net.cpp:139] Memory required for data: 3887360
I20241026 14:35:22.730487 13462 layer_factory.hpp:77] Creating layer conv2
I20241026 14:35:22.730533 13462 net.cpp:86] Creating Layer conv2
I20241026 14:35:22.730562 13462 net.cpp:408] conv2 <- pool1
I20241026 14:35:22.730597 13462 net.cpp:382] conv2 -> conv2
I20241026 14:35:22.732031 13462 net.cpp:124] Setting up conv2
I20241026 14:35:22.732090 13462 net.cpp:131] Top shape: 64 50 8 8 (204800)
I20241026 14:35:22.732132 13462 net.cpp:139] Memory required for data: 4706560
I20241026 14:35:22.732182 13462 layer_factory.hpp:77] Creating layer pool2
I20241026 14:35:22.732234 13462 net.cpp:86] Creating Layer pool2
I20241026 14:35:22.732272 13462 net.cpp:408] pool2 <- conv2
I20241026 14:35:22.732311 13462 net.cpp:382] pool2 -> pool2
I20241026 14:35:22.732414 13462 net.cpp:124] Setting up pool2
I20241026 14:35:22.732447 13462 net.cpp:131] Top shape: 64 50 4 4 (51200)
I20241026 14:35:22.732482 13462 net.cpp:139] Memory required for data: 4911360
I20241026 14:35:22.732513 13462 layer_factory.hpp:77] Creating layer ip1
I20241026 14:35:22.732575 13462 net.cpp:86] Creating Layer ip1
I20241026 14:35:22.732611 13462 net.cpp:408] ip1 <- pool2
I20241026 14:35:22.732653 13462 net.cpp:382] ip1 -> ip1
I20241026 14:35:22.746685 13462 net.cpp:124] Setting up ip1
I20241026 14:35:22.746721 13462 net.cpp:131] Top shape: 64 500 (32000)
I20241026 14:35:22.746735 13462 net.cpp:139] Memory required for data: 5039360
I20241026 14:35:22.746753 13462 layer_factory.hpp:77] Creating layer relu1
I20241026 14:35:22.746780 13462 net.cpp:86] Creating Layer relu1
I20241026 14:35:22.746793 13462 net.cpp:408] relu1 <- ip1
I20241026 14:35:22.746806 13462 net.cpp:369] relu1 -> ip1 (in-place)
I20241026 14:35:22.746827 13462 net.cpp:124] Setting up relu1
I20241026 14:35:22.746837 13462 net.cpp:131] Top shape: 64 500 (32000)
I20241026 14:35:22.746848 13462 net.cpp:139] Memory required for data: 5167360
I20241026 14:35:22.746858 13462 layer_factory.hpp:77] Creating layer ip2
I20241026 14:35:22.746873 13462 net.cpp:86] Creating Layer ip2
I20241026 14:35:22.746884 13462 net.cpp:408] ip2 <- ip1
I20241026 14:35:22.746897 13462 net.cpp:382] ip2 -> ip2
I20241026 14:35:22.747052 13462 net.cpp:124] Setting up ip2
I20241026 14:35:22.747064 13462 net.cpp:131] Top shape: 64 10 (640)
I20241026 14:35:22.747076 13462 net.cpp:139] Memory required for data: 5169920
I20241026 14:35:22.747087 13462 layer_factory.hpp:77] Creating layer loss
I20241026 14:35:22.747102 13462 net.cpp:86] Creating Layer loss
I20241026 14:35:22.747112 13462 net.cpp:408] loss <- ip2
I20241026 14:35:22.747123 13462 net.cpp:408] loss <- label
I20241026 14:35:22.747135 13462 net.cpp:382] loss -> loss
…
I20241026 14:35:22.750612 13462 solver.cpp:190] Creating test net (#0) specified by net file: examples/mnist/lenet_train_test.prototxt
I20241026 14:35:22.750715 13462 net.cpp:296] The NetState phase (1) differed from the phase (0) specified by a rule in layer mnist
I20241026 14:35:22.750737 13462 net.cpp:53] Initializing net from parameters: 
name: "LeNet"
state {
  phase: TEST
}
layer {
  name: "mnist"
  type: "Data"
  top: "data"
  top: "label"
  include {
    phase: TEST
  }
  transform_param {
    scale: 0.00390625
  }
  data_param {
    source: "examples/mnist/mnist_test_lmdb"
    batch_size: 100
    backend: LMDB
  }
}
layer {
  name: "conv1"
  type: "Convolution"
  bottom: "data"
  top: "conv1"
  param {
    lr_mult: 1
  }
  param {
    lr_mult: 2
  }
  convolution_param {
    num_output: 20
    kernel_size: 5
    stride: 1
    weight_filler {
      type: "xavier"
    }
    bias_filler {
      type: "constant"
    }
  }
}
layer {
  name: "pool1"
  type: "Pooling"
  bottom: "conv1"
  top: "pool1"
  pooling_param {
    pool: MAX
    kernel_size: 2
    stride: 2
  }
}
layer {
  name: "conv2"
  type: "Convolution"
  bottom: "pool1"
  top: "conv2"
  param {
    lr_mult: 1
  }
  param {
    lr_mult: 2
  }
  convolution_param {
    num_output: 50
    kernel_size: 5
    stride: 1
    weight_filler {
      type: "xavier"
    }
    bias_filler {
      type: "constant"
    }
  }
}
layer {
  name: "pool2"
  type: "Pooling"
  bottom: "conv2"
  top: "pool2"
  pooling_param {
    pool: MAX
    kernel_size: 2
    stride: 2
  }
}
layer {
  name: "ip1"
  type: "InnerProduct"
  bottom: "pool2"
  top: "ip1"
  param {
    lr_mult: 1
  }
  param {
    lr_mult: 2
  }
  inner_product_param {
    num_output: 500
    weight_filler {
      type: "xavier"
    }
    bias_filler {
      type: "constant"
    }
  }
}
layer {
  name: "relu1"
  type: "ReLU"
  bottom: "ip1"
  top: "ip1"
}
layer {
  name: "ip2"
  type: "InnerProduct"
  bottom: "ip1"
  top: "ip2"
  param {
    lr_mult: 1
  }
  param {
    lr_mult: 2
  }
  inner_product_param {
    num_output: 10
    weight_filler {
      type: "xavier"
    }
    bias_filler {
      type: "constant"
    }
  }
}
layer {
  name: "accuracy"
  type: "Accuracy"
  bottom: "ip2"
  bottom: "label"
  top: "accuracy"
  include {
    phase: TEST
  }
}
layer {
  name: "loss"
  type: "SoftmaxWithLoss"
  bottom: "ip2"
  bottom: "label"
  top: "loss"
}
I20241026 14:35:22.750983 13462 layer_factory.hpp:77] Creating layer mnist
I20241026 14:35:22.799264 13462 db_lmdb.cpp:35] Opened lmdb examples/mnist/mnist_test_lmdb
I20241026 14:35:22.811553 13462 net.cpp:86] Creating Layer mnist
I20241026 14:35:22.811605 13462 net.cpp:382] mnist -> data
I20241026 14:35:22.811640 13462 net.cpp:382] mnist -> label
I20241026 14:35:22.811866 13462 data_layer.cpp:45] output data size: 100,1,28,28
I20241026 14:35:22.813271 13462 net.cpp:124] Setting up mnist
I20241026 14:35:22.813335 13462 net.cpp:131] Top shape: 100 1 28 28 (78400)
I20241026 14:35:22.813380 13462 net.cpp:131] Top shape: 100 (100)
I20241026 14:35:22.813410 13462 net.cpp:139] Memory required for data: 314000
I20241026 14:35:22.813441 13462 layer_factory.hpp:77] Creating layer label_mnist_1_split
I20241026 14:35:22.813483 13462 net.cpp:86] Creating Layer label_mnist_1_split
I20241026 14:35:22.813517 13462 net.cpp:408] label_mnist_1_split <- label
I20241026 14:35:22.813566 13462 net.cpp:382] label_mnist_1_split -> label_mnist_1_split_0
I20241026 14:35:22.813616 13462 net.cpp:382] label_mnist_1_split -> label_mnist_1_split_1
I20241026 14:35:22.814103 13462 net.cpp:124] Setting up label_mnist_1_split
I20241026 14:35:22.814152 13462 net.cpp:131] Top shape: 100 (100)
I20241026 14:35:22.814184 13462 net.cpp:131] Top shape: 100 (100)
I20241026 14:35:22.814217 13462 net.cpp:139] Memory required for data: 314800
I20241026 14:35:22.814261 13462 layer_factory.hpp:77] Creating layer conv1
I20241026 14:35:22.814347 13462 net.cpp:86] Creating Layer conv1
I20241026 14:35:22.814376 13462 net.cpp:408] conv1 <- data
I20241026 14:35:22.814411 13462 net.cpp:382] conv1 -> conv1
I20241026 14:35:22.814983 13462 net.cpp:124] Setting up conv1
I20241026 14:35:22.815019 13462 net.cpp:131] Top shape: 100 20 24 24 (1152000)
I20241026 14:35:22.815055 13462 net.cpp:139] Memory required for data: 4922800
I20241026 14:35:22.815097 13462 layer_factory.hpp:77] Creating layer pool1
I20241026 14:35:22.815130 13462 net.cpp:86] Creating Layer pool1
I20241026 14:35:22.815158 13462 net.cpp:408] pool1 <- conv1
I20241026 14:35:22.815191 13462 net.cpp:382] pool1 -> pool1
I20241026 14:35:22.815289 13462 net.cpp:124] Setting up pool1
I20241026 14:35:22.815320 13462 net.cpp:131] Top shape: 100 20 12 12 (288000)
I20241026 14:35:22.815349 13462 net.cpp:139] Memory required for data: 6074800
I20241026 14:35:22.815377 13462 layer_factory.hpp:77] Creating layer conv2
I20241026 14:35:22.815430 13462 net.cpp:86] Creating Layer conv2
I20241026 14:35:22.815459 13462 net.cpp:408] conv2 <- pool1
I20241026 14:35:22.815491 13462 net.cpp:382] conv2 -> conv2
I20241026 14:35:22.816726 13462 net.cpp:124] Setting up conv2
I20241026 14:35:22.816764 13462 net.cpp:131] Top shape: 100 50 8 8 (320000)
I20241026 14:35:22.816826 13462 net.cpp:139] Memory required for data: 7354800
I20241026 14:35:22.816864 13462 layer_factory.hpp:77] Creating layer pool2
I20241026 14:35:22.816898 13462 net.cpp:86] Creating Layer pool2
I20241026 14:35:22.816927 13462 net.cpp:408] pool2 <- conv2
I20241026 14:35:22.816962 13462 net.cpp:382] pool2 -> pool2
I20241026 14:35:22.817070 13462 net.cpp:124] Setting up pool2
I20241026 14:35:22.817102 13462 net.cpp:131] Top shape: 100 50 4 4 (80000)
I20241026 14:35:22.817143 13462 net.cpp:139] Memory required for data: 7674800
I20241026 14:35:22.817171 13462 layer_factory.hpp:77] Creating layer ip1
I20241026 14:35:22.817207 13462 net.cpp:86] Creating Layer ip1
I20241026 14:35:22.817238 13462 net.cpp:408] ip1 <- pool2
I20241026 14:35:22.817278 13462 net.cpp:382] ip1 -> ip1
I20241026 14:35:22.829807 13462 net.cpp:124] Setting up ip1
I20241026 14:35:22.829849 13462 net.cpp:131] Top shape: 100 500 (50000)
I20241026 14:35:22.829864 13462 net.cpp:139] Memory required for data: 7874800
I20241026 14:35:22.829885 13462 layer_factory.hpp:77] Creating layer relu1
I20241026 14:35:22.829903 13462 net.cpp:86] Creating Layer relu1
I20241026 14:35:22.829916 13462 net.cpp:408] relu1 <- ip1
I20241026 14:35:22.829931 13462 net.cpp:369] relu1 -> ip1 (in-place)
I20241026 14:35:22.829950 13462 net.cpp:124] Setting up relu1
I20241026 14:35:22.829962 13462 net.cpp:131] Top shape: 100 500 (50000)
I20241026 14:35:22.829975 13462 net.cpp:139] Memory required for data: 8074800
I20241026 14:35:22.829988 13462 layer_factory.hpp:77] Creating layer ip2
I20241026 14:35:22.830009 13462 net.cpp:86] Creating Layer ip2
I20241026 14:35:22.830022 13462 net.cpp:408] ip2 <- ip1
I20241026 14:35:22.830037 13462 net.cpp:382] ip2 -> ip2
I20241026 14:35:22.830225 13462 net.cpp:124] Setting up ip2
I20241026 14:35:22.830238 13462 net.cpp:131] Top shape: 100 10 (1000)
I20241026 14:35:22.830252 13462 net.cpp:139] Memory required for data: 8078800
I20241026 14:35:22.830266 13462 layer_factory.hpp:77] Creating layer ip2_ip2_0_split
I20241026 14:35:22.830282 13462 net.cpp:86] Creating Layer ip2_ip2_0_split
I20241026 14:35:22.830296 13462 net.cpp:408] ip2_ip2_0_split <- ip2
I20241026 14:35:22.830310 13462 net.cpp:382] ip2_ip2_0_split -> ip2_ip2_0_split_0
I20241026 14:35:22.830327 13462 net.cpp:382] ip2_ip2_0_split -> ip2_ip2_0_split_1
I20241026 14:35:22.830371 13462 net.cpp:124] Setting up ip2_ip2_0_split
I20241026 14:35:22.830384 13462 net.cpp:131] Top shape: 100 10 (1000)
I20241026 14:35:22.830397 13462 net.cpp:131] Top shape: 100 10 (1000)
I20241026 14:35:22.830410 13462 net.cpp:139] Memory required for data: 8086800
I20241026 14:35:22.830421 13462 layer_factory.hpp:77] Creating layer accuracy
I20241026 14:35:22.830447 13462 net.cpp:86] Creating Layer accuracy
I20241026 14:35:22.830483 13462 net.cpp:408] accuracy <- ip2_ip2_0_split_0
I20241026 14:35:22.830498 13462 net.cpp:408] accuracy <- label_mnist_1_split_0
I20241026 14:35:22.830518 13462 net.cpp:382] accuracy -> accuracy
…
