…
I20241027 09:56:57.930963 858960 net.cpp:296] The NetState phase (0) differed from the phase (1) specified by a rule in layer mnist
I20241027 09:56:57.931033 858960 net.cpp:296] The NetState phase (0) differed from the phase (1) specified by a rule in layer accuracy
I20241027 09:56:57.931074 858960 net.cpp:53] Initializing net from parameters: 
name: "LeNet"
state {
  phase: TRAIN
  level: 0
  stage: ""
}
layer {
  name: "mnist"
  type: "Data"
  top: "data"
  top: "label"
  include {
    phase: TRAIN
  }
  transform_param {
    scale: 0.00390625
  }
  data_param {
    source: "examples/mnist/mnist_train_lmdb"
    batch_size: 64
    backend: LMDB
  }
}
layer {
  name: "conv1"
  type: "Convolution"
  bottom: "data"
  top: "conv1"
  param {
    lr_mult: 1
  }
  param {
    lr_mult: 2
  }
  convolution_param {
    num_output: 20
    kernel_size: 5
    stride: 1
    weight_filler {
      type: "xavier"
    }
    bias_filler {
      type: "constant"
    }
  }
}
layer {
  name: "pool1"
  type: "Pooling"
  bottom: "conv1"
  top: "pool1"
  pooling_param {
    pool: MAX
    kernel_size: 2
    stride: 2
  }
}
layer {
  name: "conv2"
  type: "Convolution"
  bottom: "pool1"
  top: "conv2"
  param {
    lr_mult: 1
  }
  param {
    lr_mult: 2
  }
  convolution_param {
    num_output: 50
    kernel_size: 5
    stride: 1
    weight_filler {
      type: "xavier"
    }
    bias_filler {
      type: "constant"
    }
  }
}
layer {
  name: "pool2"
  type: "Pooling"
  bottom: "conv2"
  top: "pool2"
  pooling_param {
    pool: MAX
    kernel_size: 2
    stride: 2
  }
}
layer {
  name: "ip1"
  type: "InnerProduct"
  bottom: "pool2"
  top: "ip1"
  param {
    lr_mult: 1
  }
  param {
    lr_mult: 2
  }
  inner_product_param {
    num_output: 500
    weight_filler {
      type: "xavier"
    }
    bias_filler {
      type: "constant"
    }
  }
}
layer {
  name: "relu1"
  type: "ReLU"
  bottom: "ip1"
  top: "ip1"
}
layer {
  name: "ip2"
  type: "InnerProduct"
  bottom: "ip1"
  top: "ip2"
  param {
    lr_mult: 1
  }
  param {
    lr_mult: 2
  }
  inner_product_param {
    num_output: 10
    weight_filler {
      type: "xavier"
    }
    bias_filler {
      type: "constant"
    }
  }
}
layer {
  name: "loss"
  type: "SoftmaxWithLoss"
  bottom: "ip2"
  bottom: "label"
  top: "loss"
}
I20241027 09:56:57.931344 858960 layer_factory.hpp:77] Creating layer mnist
I20241027 09:56:57.953210 858960 db_lmdb.cpp:35] Opened lmdb examples/mnist/mnist_train_lmdb
I20241027 09:56:57.956179 858960 net.cpp:86] Creating Layer mnist
I20241027 09:56:57.956219 858960 net.cpp:382] mnist -> data
I20241027 09:56:57.956282 858960 net.cpp:382] mnist -> label
I20241027 09:56:57.956343 858960 data_layer.cpp:45] output data size: 64,1,28,28
I20241027 09:56:57.956614 858960 net.cpp:124] Setting up mnist
I20241027 09:56:57.956638 858960 net.cpp:131] Top shape: 64 1 28 28 (50176)
I20241027 09:56:57.956658 858960 net.cpp:131] Top shape: 64 (64)
I20241027 09:56:57.956670 858960 net.cpp:139] Memory required for data: 200960
I20241027 09:56:57.956686 858960 layer_factory.hpp:77] Creating layer conv1
I20241027 09:56:57.956714 858960 net.cpp:86] Creating Layer conv1
I20241027 09:56:57.956730 858960 net.cpp:408] conv1 <- data
I20241027 09:56:57.956750 858960 net.cpp:382] conv1 -> conv1
I20241027 09:56:57.956843 858960 net.cpp:124] Setting up conv1
I20241027 09:56:57.956861 858960 net.cpp:131] Top shape: 64 20 24 24 (737280)
I20241027 09:56:57.956874 858960 net.cpp:139] Memory required for data: 3150080
I20241027 09:56:57.956897 858960 layer_factory.hpp:77] Creating layer pool1
I20241027 09:56:57.956952 858960 net.cpp:86] Creating Layer pool1
I20241027 09:56:57.956967 858960 net.cpp:408] pool1 <- conv1
I20241027 09:56:57.956983 858960 net.cpp:382] pool1 -> pool1
I20241027 09:56:57.957008 858960 net.cpp:124] Setting up pool1
I20241027 09:56:57.957021 858960 net.cpp:131] Top shape: 64 20 12 12 (184320)
I20241027 09:56:57.957034 858960 net.cpp:139] Memory required for data: 3887360
I20241027 09:56:57.957046 858960 layer_factory.hpp:77] Creating layer conv2
I20241027 09:56:57.957103 858960 net.cpp:86] Creating Layer conv2
I20241027 09:56:57.957120 858960 net.cpp:408] conv2 <- pool1
I20241027 09:56:57.957136 858960 net.cpp:382] conv2 -> conv2
I20241027 09:56:57.957469 858960 net.cpp:124] Setting up conv2
I20241027 09:56:57.957487 858960 net.cpp:131] Top shape: 64 50 8 8 (204800)
I20241027 09:56:57.957501 858960 net.cpp:139] Memory required for data: 4706560
I20241027 09:56:57.957516 858960 layer_factory.hpp:77] Creating layer pool2
I20241027 09:56:57.957532 858960 net.cpp:86] Creating Layer pool2
I20241027 09:56:57.957544 858960 net.cpp:408] pool2 <- conv2
I20241027 09:56:57.957557 858960 net.cpp:382] pool2 -> pool2
I20241027 09:56:57.957576 858960 net.cpp:124] Setting up pool2
I20241027 09:56:57.957588 858960 net.cpp:131] Top shape: 64 50 4 4 (51200)
I20241027 09:56:57.957600 858960 net.cpp:139] Memory required for data: 4911360
I20241027 09:56:57.957612 858960 layer_factory.hpp:77] Creating layer ip1
I20241027 09:56:57.957634 858960 net.cpp:86] Creating Layer ip1
I20241027 09:56:57.957648 858960 net.cpp:408] ip1 <- pool2
I20241027 09:56:57.957662 858960 net.cpp:382] ip1 -> ip1
I20241027 09:56:57.964155 858960 net.cpp:124] Setting up ip1
I20241027 09:56:57.964217 858960 net.cpp:131] Top shape: 64 500 (32000)
I20241027 09:56:57.964236 858960 net.cpp:139] Memory required for data: 5039360
I20241027 09:56:57.964253 858960 layer_factory.hpp:77] Creating layer relu1
I20241027 09:56:57.964269 858960 net.cpp:86] Creating Layer relu1
I20241027 09:56:57.964282 858960 net.cpp:408] relu1 <- ip1
I20241027 09:56:57.964296 858960 net.cpp:369] relu1 -> ip1 (in-place)
I20241027 09:56:57.964314 858960 net.cpp:124] Setting up relu1
I20241027 09:56:57.964326 858960 net.cpp:131] Top shape: 64 500 (32000)
I20241027 09:56:57.964339 858960 net.cpp:139] Memory required for data: 5167360
I20241027 09:56:57.964349 858960 layer_factory.hpp:77] Creating layer ip2
I20241027 09:56:57.964371 858960 net.cpp:86] Creating Layer ip2
I20241027 09:56:57.964385 858960 net.cpp:408] ip2 <- ip1
I20241027 09:56:57.964399 858960 net.cpp:382] ip2 -> ip2
I20241027 09:56:57.964486 858960 net.cpp:124] Setting up ip2
I20241027 09:56:57.964500 858960 net.cpp:131] Top shape: 64 10 (640)
I20241027 09:56:57.964511 858960 net.cpp:139] Memory required for data: 5169920
I20241027 09:56:57.964524 858960 layer_factory.hpp:77] Creating layer loss
I20241027 09:56:57.964540 858960 net.cpp:86] Creating Layer loss
I20241027 09:56:57.964551 858960 net.cpp:408] loss <- ip2
I20241027 09:56:57.964563 858960 net.cpp:408] loss <- label
I20241027 09:56:57.964582 858960 net.cpp:382] loss -> loss
…
I20241027 09:56:57.965727 858960 solver.cpp:190] Creating test net (#0) specified by net file: examples/mnist/lenet_train_test.prototxt
I20241027 09:56:57.965783 858960 net.cpp:296] The NetState phase (1) differed from the phase (0) specified by a rule in layer mnist
I20241027 09:56:57.965808 858960 net.cpp:53] Initializing net from parameters: 
name: "LeNet"
state {
  phase: TEST
}
layer {
  name: "mnist"
  type: "Data"
  top: "data"
  top: "label"
  include {
    phase: TEST
  }
  transform_param {
    scale: 0.00390625
  }
  data_param {
    source: "examples/mnist/mnist_test_lmdb"
    batch_size: 100
    backend: LMDB
  }
}
layer {
  name: "conv1"
  type: "Convolution"
  bottom: "data"
  top: "conv1"
  param {
    lr_mult: 1
  }
  param {
    lr_mult: 2
  }
  convolution_param {
    num_output: 20
    kernel_size: 5
    stride: 1
    weight_filler {
      type: "xavier"
    }
    bias_filler {
      type: "constant"
    }
  }
}
layer {
  name: "pool1"
  type: "Pooling"
  bottom: "conv1"
  top: "pool1"
  pooling_param {
    pool: MAX
    kernel_size: 2
    stride: 2
  }
}
layer {
  name: "conv2"
  type: "Convolution"
  bottom: "pool1"
  top: "conv2"
  param {
    lr_mult: 1
  }
  param {
    lr_mult: 2
  }
  convolution_param {
    num_output: 50
    kernel_size: 5
    stride: 1
    weight_filler {
      type: "xavier"
    }
    bias_filler {
      type: "constant"
    }
  }
}
layer {
  name: "pool2"
  type: "Pooling"
  bottom: "conv2"
  top: "pool2"
  pooling_param {
    pool: MAX
    kernel_size: 2
    stride: 2
  }
}
layer {
  name: "ip1"
  type: "InnerProduct"
  bottom: "pool2"
  top: "ip1"
  param {
    lr_mult: 1
  }
  param {
    lr_mult: 2
  }
  inner_product_param {
    num_output: 500
    weight_filler {
      type: "xavier"
    }
    bias_filler {
      type: "constant"
    }
  }
}
layer {
  name: "relu1"
  type: "ReLU"
  bottom: "ip1"
  top: "ip1"
}
layer {
  name: "ip2"
  type: "InnerProduct"
  bottom: "ip1"
  top: "ip2"
  param {
    lr_mult: 1
  }
  param {
    lr_mult: 2
  }
  inner_product_param {
    num_output: 10
    weight_filler {
      type: "xavier"
    }
    bias_filler {
      type: "constant"
    }
  }
}
layer {
  name: "accuracy"
  type: "Accuracy"
  bottom: "ip2"
  bottom: "label"
  top: "accuracy"
  include {
    phase: TEST
  }
}
layer {
  name: "loss"
  type: "SoftmaxWithLoss"
  bottom: "ip2"
  bottom: "label"
  top: "loss"
}
I20241027 09:56:57.966032 858960 layer_factory.hpp:77] Creating layer mnist
I20241027 09:56:57.982113 858960 db_lmdb.cpp:35] Opened lmdb examples/mnist/mnist_test_lmdb
I20241027 09:56:57.983336 858960 net.cpp:86] Creating Layer mnist
I20241027 09:56:57.983371 858960 net.cpp:382] mnist -> data
I20241027 09:56:57.983402 858960 net.cpp:382] mnist -> label
I20241027 09:56:57.983431 858960 data_layer.cpp:45] output data size: 100,1,28,28
I20241027 09:56:57.983615 858960 net.cpp:124] Setting up mnist
I20241027 09:56:57.983639 858960 net.cpp:131] Top shape: 100 1 28 28 (78400)
I20241027 09:56:57.983655 858960 net.cpp:131] Top shape: 100 (100)
I20241027 09:56:57.983669 858960 net.cpp:139] Memory required for data: 314000
I20241027 09:56:57.983682 858960 layer_factory.hpp:77] Creating layer label_mnist_1_split
I20241027 09:56:57.983711 858960 net.cpp:86] Creating Layer label_mnist_1_split
I20241027 09:56:57.983726 858960 net.cpp:408] label_mnist_1_split <- label
I20241027 09:56:57.983742 858960 net.cpp:382] label_mnist_1_split -> label_mnist_1_split_0
I20241027 09:56:57.983768 858960 net.cpp:382] label_mnist_1_split -> label_mnist_1_split_1
I20241027 09:56:57.983788 858960 net.cpp:124] Setting up label_mnist_1_split
I20241027 09:56:57.983801 858960 net.cpp:131] Top shape: 100 (100)
I20241027 09:56:57.983814 858960 net.cpp:131] Top shape: 100 (100)
I20241027 09:56:57.983827 858960 net.cpp:139] Memory required for data: 314800
I20241027 09:56:57.983839 858960 layer_factory.hpp:77] Creating layer conv1
I20241027 09:56:57.983884 858960 net.cpp:86] Creating Layer conv1
I20241027 09:56:57.983901 858960 net.cpp:408] conv1 <- data
I20241027 09:56:57.983916 858960 net.cpp:382] conv1 -> conv1
I20241027 09:56:57.983970 858960 net.cpp:124] Setting up conv1
I20241027 09:56:57.983986 858960 net.cpp:131] Top shape: 100 20 24 24 (1152000)
I20241027 09:56:57.984001 858960 net.cpp:139] Memory required for data: 4922800
I20241027 09:56:57.984020 858960 layer_factory.hpp:77] Creating layer pool1
I20241027 09:56:57.984041 858960 net.cpp:86] Creating Layer pool1
I20241027 09:56:57.984069 858960 net.cpp:408] pool1 <- conv1
I20241027 09:56:57.984087 858960 net.cpp:382] pool1 -> pool1
I20241027 09:56:57.984107 858960 net.cpp:124] Setting up pool1
I20241027 09:56:57.984120 858960 net.cpp:131] Top shape: 100 20 12 12 (288000)
I20241027 09:56:57.984134 858960 net.cpp:139] Memory required for data: 6074800
I20241027 09:56:57.984148 858960 layer_factory.hpp:77] Creating layer conv2
I20241027 09:56:57.984170 858960 net.cpp:86] Creating Layer conv2
I20241027 09:56:57.984184 858960 net.cpp:408] conv2 <- pool1
I20241027 09:56:57.984200 858960 net.cpp:382] conv2 -> conv2
I20241027 09:56:57.984563 858960 net.cpp:124] Setting up conv2
I20241027 09:56:57.984581 858960 net.cpp:131] Top shape: 100 50 8 8 (320000)
I20241027 09:56:57.984596 858960 net.cpp:139] Memory required for data: 7354800
I20241027 09:56:57.984612 858960 layer_factory.hpp:77] Creating layer pool2
I20241027 09:56:57.984627 858960 net.cpp:86] Creating Layer pool2
I20241027 09:56:57.984640 858960 net.cpp:408] pool2 <- conv2
I20241027 09:56:57.984660 858960 net.cpp:382] pool2 -> pool2
I20241027 09:56:57.984679 858960 net.cpp:124] Setting up pool2
I20241027 09:56:57.984692 858960 net.cpp:131] Top shape: 100 50 4 4 (80000)
I20241027 09:56:57.984707 858960 net.cpp:139] Memory required for data: 7674800
I20241027 09:56:57.984719 858960 layer_factory.hpp:77] Creating layer ip1
I20241027 09:56:57.984735 858960 net.cpp:86] Creating Layer ip1
I20241027 09:56:57.984748 858960 net.cpp:408] ip1 <- pool2
I20241027 09:56:57.984763 858960 net.cpp:382] ip1 -> ip1
I20241027 09:56:57.993240 858960 net.cpp:124] Setting up ip1
I20241027 09:56:57.993297 858960 net.cpp:131] Top shape: 100 500 (50000)
I20241027 09:56:57.993314 858960 net.cpp:139] Memory required for data: 7874800
I20241027 09:56:57.993331 858960 layer_factory.hpp:77] Creating layer relu1
I20241027 09:56:57.993346 858960 net.cpp:86] Creating Layer relu1
I20241027 09:56:57.993443 858960 net.cpp:408] relu1 <- ip1
I20241027 09:56:57.993469 858960 net.cpp:369] relu1 -> ip1 (in-place)
I20241027 09:56:57.993486 858960 net.cpp:124] Setting up relu1
I20241027 09:56:57.993499 858960 net.cpp:131] Top shape: 100 500 (50000)
I20241027 09:56:57.993510 858960 net.cpp:139] Memory required for data: 8074800
I20241027 09:56:57.993521 858960 layer_factory.hpp:77] Creating layer ip2
I20241027 09:56:57.993537 858960 net.cpp:86] Creating Layer ip2
I20241027 09:56:57.993548 858960 net.cpp:408] ip2 <- ip1
I20241027 09:56:57.993562 858960 net.cpp:382] ip2 -> ip2
I20241027 09:56:57.993650 858960 net.cpp:124] Setting up ip2
I20241027 09:56:57.993664 858960 net.cpp:131] Top shape: 100 10 (1000)
I20241027 09:56:57.993676 858960 net.cpp:139] Memory required for data: 8078800
I20241027 09:56:57.993688 858960 layer_factory.hpp:77] Creating layer ip2_ip2_0_split
I20241027 09:56:57.993702 858960 net.cpp:86] Creating Layer ip2_ip2_0_split
I20241027 09:56:57.993714 858960 net.cpp:408] ip2_ip2_0_split <- ip2
I20241027 09:56:57.993727 858960 net.cpp:382] ip2_ip2_0_split -> ip2_ip2_0_split_0
I20241027 09:56:57.993743 858960 net.cpp:382] ip2_ip2_0_split -> ip2_ip2_0_split_1
I20241027 09:56:57.993759 858960 net.cpp:124] Setting up ip2_ip2_0_split
I20241027 09:56:57.993770 858960 net.cpp:131] Top shape: 100 10 (1000)
I20241027 09:56:57.993782 858960 net.cpp:131] Top shape: 100 10 (1000)
I20241027 09:56:57.993793 858960 net.cpp:139] Memory required for data: 8086800
I20241027 09:56:57.993804 858960 layer_factory.hpp:77] Creating layer accuracy
I20241027 09:56:57.993845 858960 net.cpp:86] Creating Layer accuracy
I20241027 09:56:57.993860 858960 net.cpp:408] accuracy <- ip2_ip2_0_split_0
I20241027 09:56:57.993873 858960 net.cpp:408] accuracy <- label_mnist_1_split_0
I20241027 09:56:57.993887 858960 net.cpp:382] accuracy -> accuracy
…
