…
I20241025 10:58:32.621097 3192397 net.cpp:296] The NetState phase (0) differed from the phase (1) specified by a rule in layer mnist
I20241025 10:58:32.621150 3192397 net.cpp:296] The NetState phase (0) differed from the phase (1) specified by a rule in layer accuracy
I20241025 10:58:32.621173 3192397 net.cpp:53] Initializing net from parameters: 
name: "LeNet"
state {
  phase: TRAIN
  level: 0
  stage: ""
}
layer {
  name: "mnist"
  type: "Data"
  top: "data"
  top: "label"
  include {
    phase: TRAIN
  }
  transform_param {
    scale: 0.00390625
  }
  data_param {
    source: "examples/mnist/mnist_train_lmdb"
    batch_size: 64
    backend: LMDB
  }
}
layer {
  name: "conv1"
  type: "Convolution"
  bottom: "data"
  top: "conv1"
  param {
    lr_mult: 1
  }
  param {
    lr_mult: 2
  }
  convolution_param {
    num_output: 20
    kernel_size: 5
    stride: 1
    weight_filler {
      type: "xavier"
    }
    bias_filler {
      type: "constant"
    }
  }
}
layer {
  name: "pool1"
  type: "Pooling"
  bottom: "conv1"
  top: "pool1"
  pooling_param {
    pool: MAX
    kernel_size: 2
    stride: 2
  }
}
layer {
  name: "conv2"
  type: "Convolution"
  bottom: "pool1"
  top: "conv2"
  param {
    lr_mult: 1
  }
  param {
    lr_mult: 2
  }
  convolution_param {
    num_output: 50
    kernel_size: 5
    stride: 1
    weight_filler {
      type: "xavier"
    }
    bias_filler {
      type: "constant"
    }
  }
}
layer {
  name: "pool2"
  type: "Pooling"
  bottom: "conv2"
  top: "pool2"
  pooling_param {
    pool: MAX
    kernel_size: 2
    stride: 2
  }
}
layer {
  name: "ip1"
  type: "InnerProduct"
  bottom: "pool2"
  top: "ip1"
  param {
    lr_mult: 1
  }
  param {
    lr_mult: 2
  }
  inner_product_param {
    num_output: 500
    weight_filler {
      type: "xavier"
    }
    bias_filler {
      type: "constant"
    }
  }
}
layer {
  name: "relu1"
  type: "ReLU"
  bottom: "ip1"
  top: "ip1"
}
layer {
  name: "ip2"
  type: "InnerProduct"
  bottom: "ip1"
  top: "ip2"
  param {
    lr_mult: 1
  }
  param {
    lr_mult: 2
  }
  inner_product_param {
    num_output: 10
    weight_filler {
      type: "xavier"
    }
    bias_filler {
      type: "constant"
    }
  }
}
layer {
  name: "loss"
  type: "SoftmaxWithLoss"
  bottom: "ip2"
  bottom: "label"
  top: "loss"
}
I20241025 10:58:32.621546 3192397 layer_factory.hpp:77] Creating layer mnist
I20241025 10:58:32.656560 3192397 db_lmdb.cpp:35] Opened lmdb examples/mnist/mnist_train_lmdb
I20241025 10:58:32.657665 3192397 net.cpp:86] Creating Layer mnist
I20241025 10:58:32.657707 3192397 net.cpp:382] mnist -> data
I20241025 10:58:32.657766 3192397 net.cpp:382] mnist -> label
I20241025 10:58:32.657829 3192397 data_layer.cpp:45] output data size: 64,1,28,28
I20241025 10:58:32.658105 3192397 net.cpp:124] Setting up mnist
I20241025 10:58:32.658138 3192397 net.cpp:131] Top shape: 64 1 28 28 (50176)
I20241025 10:58:32.658180 3192397 net.cpp:131] Top shape: 64 (64)
I20241025 10:58:32.658200 3192397 net.cpp:139] Memory required for data: 200960
I20241025 10:58:32.658217 3192397 layer_factory.hpp:77] Creating layer conv1
I20241025 10:58:32.658252 3192397 net.cpp:86] Creating Layer conv1
I20241025 10:58:32.658272 3192397 net.cpp:408] conv1 <- data
I20241025 10:58:32.658306 3192397 net.cpp:382] conv1 -> conv1
I20241025 10:58:32.658404 3192397 net.cpp:124] Setting up conv1
I20241025 10:58:32.658442 3192397 net.cpp:131] Top shape: 64 20 24 24 (737280)
I20241025 10:58:32.658463 3192397 net.cpp:139] Memory required for data: 3150080
I20241025 10:58:32.658491 3192397 layer_factory.hpp:77] Creating layer pool1
I20241025 10:58:32.658514 3192397 net.cpp:86] Creating Layer pool1
I20241025 10:58:32.658531 3192397 net.cpp:408] pool1 <- conv1
I20241025 10:58:32.658550 3192397 net.cpp:382] pool1 -> pool1
I20241025 10:58:32.658579 3192397 net.cpp:124] Setting up pool1
I20241025 10:58:32.658597 3192397 net.cpp:131] Top shape: 64 20 12 12 (184320)
I20241025 10:58:32.658615 3192397 net.cpp:139] Memory required for data: 3887360
I20241025 10:58:32.658632 3192397 layer_factory.hpp:77] Creating layer conv2
I20241025 10:58:32.658654 3192397 net.cpp:86] Creating Layer conv2
I20241025 10:58:32.658699 3192397 net.cpp:408] conv2 <- pool1
I20241025 10:58:32.658722 3192397 net.cpp:382] conv2 -> conv2
I20241025 10:58:32.659087 3192397 net.cpp:124] Setting up conv2
I20241025 10:58:32.659111 3192397 net.cpp:131] Top shape: 64 50 8 8 (204800)
I20241025 10:58:32.659130 3192397 net.cpp:139] Memory required for data: 4706560
I20241025 10:58:32.659150 3192397 layer_factory.hpp:77] Creating layer pool2
I20241025 10:58:32.659171 3192397 net.cpp:86] Creating Layer pool2
I20241025 10:58:32.659188 3192397 net.cpp:408] pool2 <- conv2
I20241025 10:58:32.659206 3192397 net.cpp:382] pool2 -> pool2
I20241025 10:58:32.659229 3192397 net.cpp:124] Setting up pool2
I20241025 10:58:32.659248 3192397 net.cpp:131] Top shape: 64 50 4 4 (51200)
I20241025 10:58:32.659264 3192397 net.cpp:139] Memory required for data: 4911360
I20241025 10:58:32.659278 3192397 layer_factory.hpp:77] Creating layer ip1
I20241025 10:58:32.659298 3192397 net.cpp:86] Creating Layer ip1
I20241025 10:58:32.659317 3192397 net.cpp:408] ip1 <- pool2
I20241025 10:58:32.659335 3192397 net.cpp:382] ip1 -> ip1
I20241025 10:58:32.664512 3192397 net.cpp:124] Setting up ip1
I20241025 10:58:32.664541 3192397 net.cpp:131] Top shape: 64 500 (32000)
I20241025 10:58:32.664558 3192397 net.cpp:139] Memory required for data: 5039360
I20241025 10:58:32.664578 3192397 layer_factory.hpp:77] Creating layer relu1
I20241025 10:58:32.664604 3192397 net.cpp:86] Creating Layer relu1
I20241025 10:58:32.664620 3192397 net.cpp:408] relu1 <- ip1
I20241025 10:58:32.664636 3192397 net.cpp:369] relu1 -> ip1 (in-place)
I20241025 10:58:32.664664 3192397 net.cpp:124] Setting up relu1
I20241025 10:58:32.664681 3192397 net.cpp:131] Top shape: 64 500 (32000)
I20241025 10:58:32.664698 3192397 net.cpp:139] Memory required for data: 5167360
I20241025 10:58:32.664714 3192397 layer_factory.hpp:77] Creating layer ip2
I20241025 10:58:32.664734 3192397 net.cpp:86] Creating Layer ip2
I20241025 10:58:32.664750 3192397 net.cpp:408] ip2 <- ip1
I20241025 10:58:32.664770 3192397 net.cpp:382] ip2 -> ip2
I20241025 10:58:32.664865 3192397 net.cpp:124] Setting up ip2
I20241025 10:58:32.664883 3192397 net.cpp:131] Top shape: 64 10 (640)
I20241025 10:58:32.664901 3192397 net.cpp:139] Memory required for data: 5169920
I20241025 10:58:32.664918 3192397 layer_factory.hpp:77] Creating layer loss
I20241025 10:58:32.664944 3192397 net.cpp:86] Creating Layer loss
I20241025 10:58:32.664963 3192397 net.cpp:408] loss <- ip2
I20241025 10:58:32.664979 3192397 net.cpp:408] loss <- label
I20241025 10:58:32.664997 3192397 net.cpp:382] loss -> loss
…
